<?xml version="1.0" ?>
<net name="torch-jit-export" version="11">
	<layers>
		<layer id="0" name="image" type="Parameter" version="opset1">
			<data shape="1,3,288,288" element_type="f32"/>
			<rt_info>
				<attribute name="fused_names" version="0" value="image"/>
			</rt_info>
			<output>
				<port id="0" precision="FP32" names="image">
					<dim>1</dim>
					<dim>3</dim>
					<dim>288</dim>
					<dim>288</dim>
					<rt_info>
						<attribute name="layout" version="0" layout="[N,C,H,W]"/>
					</rt_info>
				</port>
			</output>
		</layer>
		<layer id="1" name="Gather_69925" type="Const" version="opset1">
			<data element_type="f32" shape="1, 3, 1, 1" offset="0" size="12"/>
			<output>
				<port id="0" precision="FP32">
					<dim>1</dim>
					<dim>3</dim>
					<dim>1</dim>
					<dim>1</dim>
				</port>
			</output>
		</layer>
		<layer id="2" name="Subtract_9252" type="Subtract" version="opset1">
			<data auto_broadcast="numpy"/>
			<rt_info>
				<attribute name="fused_names" version="0" value="Subtract_9252"/>
				<attribute name="preprocessing" version="0"/>
			</rt_info>
			<input>
				<port id="0" precision="FP32">
					<dim>1</dim>
					<dim>3</dim>
					<dim>288</dim>
					<dim>288</dim>
				</port>
				<port id="1" precision="FP32">
					<dim>1</dim>
					<dim>3</dim>
					<dim>1</dim>
					<dim>1</dim>
				</port>
			</input>
			<output>
				<port id="2" precision="FP32">
					<dim>1</dim>
					<dim>3</dim>
					<dim>288</dim>
					<dim>288</dim>
				</port>
			</output>
		</layer>
		<layer id="3" name="Gather_69928" type="Const" version="opset1">
			<data element_type="f32" shape="24, 3, 3, 3" offset="12" size="2592"/>
			<output>
				<port id="0" precision="FP32">
					<dim>24</dim>
					<dim>3</dim>
					<dim>3</dim>
					<dim>3</dim>
				</port>
			</output>
		</layer>
		<layer id="4" name="Multiply_61713" type="Convolution" version="opset1">
			<data strides="2, 2" dilations="1, 1" pads_begin="1, 1" pads_end="1, 1" auto_pad="explicit"/>
			<rt_info>
				<attribute name="fused_names" version="0" value="1249, 1250, Constant_9253, Divide_9254, backbone.module.features.init_block.conv.bn.bias, backbone.module.features.init_block.conv.bn.running_mean, backbone.module.features.init_block.conv.bn.running_var, backbone.module.features.init_block.conv.bn.weight, backbone.module.features.init_block.conv.conv.weight"/>
				<attribute name="preprocessing" version="0"/>
			</rt_info>
			<input>
				<port id="0" precision="FP32">
					<dim>1</dim>
					<dim>3</dim>
					<dim>288</dim>
					<dim>288</dim>
				</port>
				<port id="1" precision="FP32">
					<dim>24</dim>
					<dim>3</dim>
					<dim>3</dim>
					<dim>3</dim>
				</port>
			</input>
			<output>
				<port id="2" precision="FP32">
					<dim>1</dim>
					<dim>24</dim>
					<dim>144</dim>
					<dim>144</dim>
				</port>
			</output>
		</layer>
		<layer id="5" name="Constant_61718" type="Const" version="opset1">
			<data element_type="f32" shape="1, 24, 1, 1" offset="2604" size="96"/>
			<output>
				<port id="0" precision="FP32">
					<dim>1</dim>
					<dim>24</dim>
					<dim>1</dim>
					<dim>1</dim>
				</port>
			</output>
		</layer>
		<layer id="6" name="1250" type="Add" version="opset1">
			<data auto_broadcast="numpy"/>
			<rt_info>
				<attribute name="fused_names" version="0" value="1250, backbone.module.features.init_block.conv.bn.bias, backbone.module.features.init_block.conv.bn.running_mean, backbone.module.features.init_block.conv.bn.running_var, backbone.module.features.init_block.conv.bn.weight"/>
			</rt_info>
			<input>
				<port id="0" precision="FP32">
					<dim>1</dim>
					<dim>24</dim>
					<dim>144</dim>
					<dim>144</dim>
				</port>
				<port id="1" precision="FP32">
					<dim>1</dim>
					<dim>24</dim>
					<dim>1</dim>
					<dim>1</dim>
				</port>
			</input>
			<output>
				<port id="2" precision="FP32" names="1250">
					<dim>1</dim>
					<dim>24</dim>
					<dim>144</dim>
					<dim>144</dim>
				</port>
			</output>
		</layer>
		<layer id="7" name="1252" type="Swish" version="opset4">
			<rt_info>
				<attribute name="fused_names" version="0" value="1251, 1252"/>
			</rt_info>
			<input>
				<port id="0" precision="FP32">
					<dim>1</dim>
					<dim>24</dim>
					<dim>144</dim>
					<dim>144</dim>
				</port>
			</input>
			<output>
				<port id="1" precision="FP32" names="1252">
					<dim>1</dim>
					<dim>24</dim>
					<dim>144</dim>
					<dim>144</dim>
				</port>
			</output>
		</layer>
		<layer id="8" name="Multiply_63016" type="Const" version="opset1">
			<data element_type="f32" shape="24, 1, 1, 3, 3" offset="2700" size="864"/>
			<output>
				<port id="0" precision="FP32">
					<dim>24</dim>
					<dim>1</dim>
					<dim>1</dim>
					<dim>3</dim>
					<dim>3</dim>
				</port>
			</output>
		</layer>
		<layer id="9" name="Multiply_61720" type="GroupConvolution" version="opset1">
			<data strides="1, 1" pads_begin="1, 1" pads_end="1, 1" dilations="1, 1" auto_pad="explicit"/>
			<rt_info>
				<attribute name="fused_names" version="0" value="1254, backbone.module.features.stage1.unit1.dw_conv.bn.bias, backbone.module.features.stage1.unit1.dw_conv.bn.running_mean, backbone.module.features.stage1.unit1.dw_conv.bn.running_var, backbone.module.features.stage1.unit1.dw_conv.bn.weight"/>
			</rt_info>
			<input>
				<port id="0" precision="FP32">
					<dim>1</dim>
					<dim>24</dim>
					<dim>144</dim>
					<dim>144</dim>
				</port>
				<port id="1" precision="FP32">
					<dim>24</dim>
					<dim>1</dim>
					<dim>1</dim>
					<dim>3</dim>
					<dim>3</dim>
				</port>
			</input>
			<output>
				<port id="2" precision="FP32" names="1253">
					<dim>1</dim>
					<dim>24</dim>
					<dim>144</dim>
					<dim>144</dim>
				</port>
			</output>
		</layer>
		<layer id="10" name="Constant_61725" type="Const" version="opset1">
			<data element_type="f32" shape="1, 24, 1, 1" offset="3564" size="96"/>
			<output>
				<port id="0" precision="FP32">
					<dim>1</dim>
					<dim>24</dim>
					<dim>1</dim>
					<dim>1</dim>
				</port>
			</output>
		</layer>
		<layer id="11" name="1254" type="Add" version="opset1">
			<data auto_broadcast="numpy"/>
			<rt_info>
				<attribute name="fused_names" version="0" value="1254, backbone.module.features.stage1.unit1.dw_conv.bn.bias, backbone.module.features.stage1.unit1.dw_conv.bn.running_mean, backbone.module.features.stage1.unit1.dw_conv.bn.running_var, backbone.module.features.stage1.unit1.dw_conv.bn.weight"/>
			</rt_info>
			<input>
				<port id="0" precision="FP32">
					<dim>1</dim>
					<dim>24</dim>
					<dim>144</dim>
					<dim>144</dim>
				</port>
				<port id="1" precision="FP32">
					<dim>1</dim>
					<dim>24</dim>
					<dim>1</dim>
					<dim>1</dim>
				</port>
			</input>
			<output>
				<port id="2" precision="FP32" names="1254">
					<dim>1</dim>
					<dim>24</dim>
					<dim>144</dim>
					<dim>144</dim>
				</port>
			</output>
		</layer>
		<layer id="12" name="1256" type="Swish" version="opset4">
			<rt_info>
				<attribute name="fused_names" version="0" value="1255, 1256"/>
			</rt_info>
			<input>
				<port id="0" precision="FP32">
					<dim>1</dim>
					<dim>24</dim>
					<dim>144</dim>
					<dim>144</dim>
				</port>
			</input>
			<output>
				<port id="1" precision="FP32" names="1256">
					<dim>1</dim>
					<dim>24</dim>
					<dim>144</dim>
					<dim>144</dim>
				</port>
			</output>
		</layer>
		<layer id="13" name="Range_1072" type="Const" version="opset1">
			<data element_type="i64" shape="2" offset="3660" size="16"/>
			<output>
				<port id="0" precision="I64">
					<dim>2</dim>
				</port>
			</output>
		</layer>
		<layer id="14" name="1257" type="ReduceMean" version="opset1">
			<data keep_dims="true"/>
			<rt_info>
				<attribute name="fused_names" version="0" value="1257, Range_1072"/>
			</rt_info>
			<input>
				<port id="0" precision="FP32">
					<dim>1</dim>
					<dim>24</dim>
					<dim>144</dim>
					<dim>144</dim>
				</port>
				<port id="1" precision="I64">
					<dim>2</dim>
				</port>
			</input>
			<output>
				<port id="2" precision="FP32" names="1257">
					<dim>1</dim>
					<dim>24</dim>
					<dim>1</dim>
					<dim>1</dim>
				</port>
			</output>
		</layer>
		<layer id="15" name="backbone.module.features.stage1.unit1.se.conv1.weight" type="Const" version="opset1">
			<data element_type="f32" shape="6, 24, 1, 1" offset="3676" size="576"/>
			<rt_info>
				<attribute name="fused_names" version="0" value="backbone.module.features.stage1.unit1.se.conv1.weight"/>
			</rt_info>
			<output>
				<port id="0" precision="FP32" names="backbone.module.features.stage1.unit1.se.conv1.weight">
					<dim>6</dim>
					<dim>24</dim>
					<dim>1</dim>
					<dim>1</dim>
				</port>
			</output>
		</layer>
		<layer id="16" name="Convolution_1097" type="Convolution" version="opset1">
			<data strides="1, 1" dilations="1, 1" pads_begin="0, 0" pads_end="0, 0" auto_pad="explicit"/>
			<rt_info>
				<attribute name="fused_names" version="0" value="Convolution_1097"/>
			</rt_info>
			<input>
				<port id="0" precision="FP32">
					<dim>1</dim>
					<dim>24</dim>
					<dim>1</dim>
					<dim>1</dim>
				</port>
				<port id="1" precision="FP32">
					<dim>6</dim>
					<dim>24</dim>
					<dim>1</dim>
					<dim>1</dim>
				</port>
			</input>
			<output>
				<port id="2" precision="FP32">
					<dim>1</dim>
					<dim>6</dim>
					<dim>1</dim>
					<dim>1</dim>
				</port>
			</output>
		</layer>
		<layer id="17" name="Reshape_1117" type="Const" version="opset1">
			<data element_type="f32" shape="1, 6, 1, 1" offset="4252" size="24"/>
			<output>
				<port id="0" precision="FP32">
					<dim>1</dim>
					<dim>6</dim>
					<dim>1</dim>
					<dim>1</dim>
				</port>
			</output>
		</layer>
		<layer id="18" name="1258" type="Add" version="opset1">
			<data auto_broadcast="numpy"/>
			<rt_info>
				<attribute name="fused_names" version="0" value="1258, Concat_1116, Reshape_1117"/>
			</rt_info>
			<input>
				<port id="0" precision="FP32">
					<dim>1</dim>
					<dim>6</dim>
					<dim>1</dim>
					<dim>1</dim>
				</port>
				<port id="1" precision="FP32">
					<dim>1</dim>
					<dim>6</dim>
					<dim>1</dim>
					<dim>1</dim>
				</port>
			</input>
			<output>
				<port id="2" precision="FP32" names="1258">
					<dim>1</dim>
					<dim>6</dim>
					<dim>1</dim>
					<dim>1</dim>
				</port>
			</output>
		</layer>
		<layer id="19" name="1260" type="Swish" version="opset4">
			<rt_info>
				<attribute name="fused_names" version="0" value="1259, 1260"/>
			</rt_info>
			<input>
				<port id="0" precision="FP32">
					<dim>1</dim>
					<dim>6</dim>
					<dim>1</dim>
					<dim>1</dim>
				</port>
			</input>
			<output>
				<port id="1" precision="FP32" names="1260">
					<dim>1</dim>
					<dim>6</dim>
					<dim>1</dim>
					<dim>1</dim>
				</port>
			</output>
		</layer>
		<layer id="20" name="backbone.module.features.stage1.unit1.se.conv2.weight" type="Const" version="opset1">
			<data element_type="f32" shape="24, 6, 1, 1" offset="4276" size="576"/>
			<rt_info>
				<attribute name="fused_names" version="0" value="backbone.module.features.stage1.unit1.se.conv2.weight"/>
			</rt_info>
			<output>
				<port id="0" precision="FP32" names="backbone.module.features.stage1.unit1.se.conv2.weight">
					<dim>24</dim>
					<dim>6</dim>
					<dim>1</dim>
					<dim>1</dim>
				</port>
			</output>
		</layer>
		<layer id="21" name="Convolution_1147" type="Convolution" version="opset1">
			<data strides="1, 1" dilations="1, 1" pads_begin="0, 0" pads_end="0, 0" auto_pad="explicit"/>
			<rt_info>
				<attribute name="fused_names" version="0" value="Convolution_1147"/>
			</rt_info>
			<input>
				<port id="0" precision="FP32">
					<dim>1</dim>
					<dim>6</dim>
					<dim>1</dim>
					<dim>1</dim>
				</port>
				<port id="1" precision="FP32">
					<dim>24</dim>
					<dim>6</dim>
					<dim>1</dim>
					<dim>1</dim>
				</port>
			</input>
			<output>
				<port id="2" precision="FP32">
					<dim>1</dim>
					<dim>24</dim>
					<dim>1</dim>
					<dim>1</dim>
				</port>
			</output>
		</layer>
		<layer id="22" name="Reshape_1167" type="Const" version="opset1">
			<data element_type="f32" shape="1, 24, 1, 1" offset="4852" size="96"/>
			<output>
				<port id="0" precision="FP32">
					<dim>1</dim>
					<dim>24</dim>
					<dim>1</dim>
					<dim>1</dim>
				</port>
			</output>
		</layer>
		<layer id="23" name="1261" type="Add" version="opset1">
			<data auto_broadcast="numpy"/>
			<rt_info>
				<attribute name="fused_names" version="0" value="1261, Concat_1166, Reshape_1167"/>
			</rt_info>
			<input>
				<port id="0" precision="FP32">
					<dim>1</dim>
					<dim>24</dim>
					<dim>1</dim>
					<dim>1</dim>
				</port>
				<port id="1" precision="FP32">
					<dim>1</dim>
					<dim>24</dim>
					<dim>1</dim>
					<dim>1</dim>
				</port>
			</input>
			<output>
				<port id="2" precision="FP32" names="1261">
					<dim>1</dim>
					<dim>24</dim>
					<dim>1</dim>
					<dim>1</dim>
				</port>
			</output>
		</layer>
		<layer id="24" name="1262" type="Sigmoid" version="opset1">
			<rt_info>
				<attribute name="fused_names" version="0" value="1262"/>
			</rt_info>
			<input>
				<port id="0" precision="FP32">
					<dim>1</dim>
					<dim>24</dim>
					<dim>1</dim>
					<dim>1</dim>
				</port>
			</input>
			<output>
				<port id="1" precision="FP32" names="1262">
					<dim>1</dim>
					<dim>24</dim>
					<dim>1</dim>
					<dim>1</dim>
				</port>
			</output>
		</layer>
		<layer id="25" name="1263" type="Multiply" version="opset1">
			<data auto_broadcast="numpy"/>
			<rt_info>
				<attribute name="fused_names" version="0" value="1263"/>
			</rt_info>
			<input>
				<port id="0" precision="FP32">
					<dim>1</dim>
					<dim>24</dim>
					<dim>144</dim>
					<dim>144</dim>
				</port>
				<port id="1" precision="FP32">
					<dim>1</dim>
					<dim>24</dim>
					<dim>1</dim>
					<dim>1</dim>
				</port>
			</input>
			<output>
				<port id="2" precision="FP32" names="1263">
					<dim>1</dim>
					<dim>24</dim>
					<dim>144</dim>
					<dim>144</dim>
				</port>
			</output>
		</layer>
		<layer id="26" name="Multiply_63024" type="Const" version="opset1">
			<data element_type="f32" shape="16, 24, 1, 1" offset="4948" size="1536"/>
			<output>
				<port id="0" precision="FP32">
					<dim>16</dim>
					<dim>24</dim>
					<dim>1</dim>
					<dim>1</dim>
				</port>
			</output>
		</layer>
		<layer id="27" name="Multiply_61727" type="Convolution" version="opset1">
			<data strides="1, 1" dilations="1, 1" pads_begin="0, 0" pads_end="0, 0" auto_pad="explicit"/>
			<rt_info>
				<attribute name="fused_names" version="0" value="1264, 1265, backbone.module.features.stage1.unit1.pw_conv.bn.bias, backbone.module.features.stage1.unit1.pw_conv.bn.running_mean, backbone.module.features.stage1.unit1.pw_conv.bn.running_var, backbone.module.features.stage1.unit1.pw_conv.bn.weight"/>
			</rt_info>
			<input>
				<port id="0" precision="FP32">
					<dim>1</dim>
					<dim>24</dim>
					<dim>144</dim>
					<dim>144</dim>
				</port>
				<port id="1" precision="FP32">
					<dim>16</dim>
					<dim>24</dim>
					<dim>1</dim>
					<dim>1</dim>
				</port>
			</input>
			<output>
				<port id="2" precision="FP32">
					<dim>1</dim>
					<dim>16</dim>
					<dim>144</dim>
					<dim>144</dim>
				</port>
			</output>
		</layer>
		<layer id="28" name="Constant_61732" type="Const" version="opset1">
			<data element_type="f32" shape="1, 16, 1, 1" offset="6484" size="64"/>
			<output>
				<port id="0" precision="FP32">
					<dim>1</dim>
					<dim>16</dim>
					<dim>1</dim>
					<dim>1</dim>
				</port>
			</output>
		</layer>
		<layer id="29" name="1265" type="Add" version="opset1">
			<data auto_broadcast="numpy"/>
			<rt_info>
				<attribute name="fused_names" version="0" value="1265, backbone.module.features.stage1.unit1.pw_conv.bn.bias, backbone.module.features.stage1.unit1.pw_conv.bn.running_mean, backbone.module.features.stage1.unit1.pw_conv.bn.running_var, backbone.module.features.stage1.unit1.pw_conv.bn.weight"/>
			</rt_info>
			<input>
				<port id="0" precision="FP32">
					<dim>1</dim>
					<dim>16</dim>
					<dim>144</dim>
					<dim>144</dim>
				</port>
				<port id="1" precision="FP32">
					<dim>1</dim>
					<dim>16</dim>
					<dim>1</dim>
					<dim>1</dim>
				</port>
			</input>
			<output>
				<port id="2" precision="FP32" names="1265">
					<dim>1</dim>
					<dim>16</dim>
					<dim>144</dim>
					<dim>144</dim>
				</port>
			</output>
		</layer>
		<layer id="30" name="Multiply_63033" type="Const" version="opset1">
			<data element_type="f32" shape="96, 16, 1, 1" offset="6548" size="6144"/>
			<output>
				<port id="0" precision="FP32">
					<dim>96</dim>
					<dim>16</dim>
					<dim>1</dim>
					<dim>1</dim>
				</port>
			</output>
		</layer>
		<layer id="31" name="Multiply_61734" type="Convolution" version="opset1">
			<data strides="1, 1" dilations="1, 1" pads_begin="0, 0" pads_end="0, 0" auto_pad="explicit"/>
			<rt_info>
				<attribute name="fused_names" version="0" value="1266, 1267, backbone.module.features.stage2.unit1.conv1.bn.bias, backbone.module.features.stage2.unit1.conv1.bn.running_mean, backbone.module.features.stage2.unit1.conv1.bn.running_var, backbone.module.features.stage2.unit1.conv1.bn.weight"/>
			</rt_info>
			<input>
				<port id="0" precision="FP32">
					<dim>1</dim>
					<dim>16</dim>
					<dim>144</dim>
					<dim>144</dim>
				</port>
				<port id="1" precision="FP32">
					<dim>96</dim>
					<dim>16</dim>
					<dim>1</dim>
					<dim>1</dim>
				</port>
			</input>
			<output>
				<port id="2" precision="FP32">
					<dim>1</dim>
					<dim>96</dim>
					<dim>144</dim>
					<dim>144</dim>
				</port>
			</output>
		</layer>
		<layer id="32" name="Constant_61739" type="Const" version="opset1">
			<data element_type="f32" shape="1, 96, 1, 1" offset="12692" size="384"/>
			<output>
				<port id="0" precision="FP32">
					<dim>1</dim>
					<dim>96</dim>
					<dim>1</dim>
					<dim>1</dim>
				</port>
			</output>
		</layer>
		<layer id="33" name="1267" type="Add" version="opset1">
			<data auto_broadcast="numpy"/>
			<rt_info>
				<attribute name="fused_names" version="0" value="1267, backbone.module.features.stage2.unit1.conv1.bn.bias, backbone.module.features.stage2.unit1.conv1.bn.running_mean, backbone.module.features.stage2.unit1.conv1.bn.running_var, backbone.module.features.stage2.unit1.conv1.bn.weight"/>
			</rt_info>
			<input>
				<port id="0" precision="FP32">
					<dim>1</dim>
					<dim>96</dim>
					<dim>144</dim>
					<dim>144</dim>
				</port>
				<port id="1" precision="FP32">
					<dim>1</dim>
					<dim>96</dim>
					<dim>1</dim>
					<dim>1</dim>
				</port>
			</input>
			<output>
				<port id="2" precision="FP32" names="1267">
					<dim>1</dim>
					<dim>96</dim>
					<dim>144</dim>
					<dim>144</dim>
				</port>
			</output>
		</layer>
		<layer id="34" name="1269" type="Swish" version="opset4">
			<rt_info>
				<attribute name="fused_names" version="0" value="1268, 1269"/>
			</rt_info>
			<input>
				<port id="0" precision="FP32">
					<dim>1</dim>
					<dim>96</dim>
					<dim>144</dim>
					<dim>144</dim>
				</port>
			</input>
			<output>
				<port id="1" precision="FP32" names="1269">
					<dim>1</dim>
					<dim>96</dim>
					<dim>144</dim>
					<dim>144</dim>
				</port>
			</output>
		</layer>
		<layer id="35" name="Multiply_63042" type="Const" version="opset1">
			<data element_type="f32" shape="96, 1, 1, 3, 3" offset="13076" size="3456"/>
			<output>
				<port id="0" precision="FP32">
					<dim>96</dim>
					<dim>1</dim>
					<dim>1</dim>
					<dim>3</dim>
					<dim>3</dim>
				</port>
			</output>
		</layer>
		<layer id="36" name="Multiply_61741" type="GroupConvolution" version="opset1">
			<data strides="2, 2" pads_begin="1, 1" pads_end="1, 1" dilations="1, 1" auto_pad="explicit"/>
			<rt_info>
				<attribute name="fused_names" version="0" value="1271, backbone.module.features.stage2.unit1.conv2.bn.bias, backbone.module.features.stage2.unit1.conv2.bn.running_mean, backbone.module.features.stage2.unit1.conv2.bn.running_var, backbone.module.features.stage2.unit1.conv2.bn.weight"/>
			</rt_info>
			<input>
				<port id="0" precision="FP32">
					<dim>1</dim>
					<dim>96</dim>
					<dim>144</dim>
					<dim>144</dim>
				</port>
				<port id="1" precision="FP32">
					<dim>96</dim>
					<dim>1</dim>
					<dim>1</dim>
					<dim>3</dim>
					<dim>3</dim>
				</port>
			</input>
			<output>
				<port id="2" precision="FP32" names="1270">
					<dim>1</dim>
					<dim>96</dim>
					<dim>72</dim>
					<dim>72</dim>
				</port>
			</output>
		</layer>
		<layer id="37" name="Constant_61746" type="Const" version="opset1">
			<data element_type="f32" shape="1, 96, 1, 1" offset="16532" size="384"/>
			<output>
				<port id="0" precision="FP32">
					<dim>1</dim>
					<dim>96</dim>
					<dim>1</dim>
					<dim>1</dim>
				</port>
			</output>
		</layer>
		<layer id="38" name="1271" type="Add" version="opset1">
			<data auto_broadcast="numpy"/>
			<rt_info>
				<attribute name="fused_names" version="0" value="1271, backbone.module.features.stage2.unit1.conv2.bn.bias, backbone.module.features.stage2.unit1.conv2.bn.running_mean, backbone.module.features.stage2.unit1.conv2.bn.running_var, backbone.module.features.stage2.unit1.conv2.bn.weight"/>
			</rt_info>
			<input>
				<port id="0" precision="FP32">
					<dim>1</dim>
					<dim>96</dim>
					<dim>72</dim>
					<dim>72</dim>
				</port>
				<port id="1" precision="FP32">
					<dim>1</dim>
					<dim>96</dim>
					<dim>1</dim>
					<dim>1</dim>
				</port>
			</input>
			<output>
				<port id="2" precision="FP32" names="1271">
					<dim>1</dim>
					<dim>96</dim>
					<dim>72</dim>
					<dim>72</dim>
				</port>
			</output>
		</layer>
		<layer id="39" name="1273" type="Swish" version="opset4">
			<rt_info>
				<attribute name="fused_names" version="0" value="1272, 1273"/>
			</rt_info>
			<input>
				<port id="0" precision="FP32">
					<dim>1</dim>
					<dim>96</dim>
					<dim>72</dim>
					<dim>72</dim>
				</port>
			</input>
			<output>
				<port id="1" precision="FP32" names="1273">
					<dim>1</dim>
					<dim>96</dim>
					<dim>72</dim>
					<dim>72</dim>
				</port>
			</output>
		</layer>
		<layer id="40" name="Range_1290" type="Const" version="opset1">
			<data element_type="i64" shape="2" offset="3660" size="16"/>
			<output>
				<port id="0" precision="I64">
					<dim>2</dim>
				</port>
			</output>
		</layer>
		<layer id="41" name="1274" type="ReduceMean" version="opset1">
			<data keep_dims="true"/>
			<rt_info>
				<attribute name="fused_names" version="0" value="1274, Range_1290"/>
			</rt_info>
			<input>
				<port id="0" precision="FP32">
					<dim>1</dim>
					<dim>96</dim>
					<dim>72</dim>
					<dim>72</dim>
				</port>
				<port id="1" precision="I64">
					<dim>2</dim>
				</port>
			</input>
			<output>
				<port id="2" precision="FP32" names="1274">
					<dim>1</dim>
					<dim>96</dim>
					<dim>1</dim>
					<dim>1</dim>
				</port>
			</output>
		</layer>
		<layer id="42" name="backbone.module.features.stage2.unit1.se.conv1.weight" type="Const" version="opset1">
			<data element_type="f32" shape="4, 96, 1, 1" offset="16916" size="1536"/>
			<rt_info>
				<attribute name="fused_names" version="0" value="backbone.module.features.stage2.unit1.se.conv1.weight"/>
			</rt_info>
			<output>
				<port id="0" precision="FP32" names="backbone.module.features.stage2.unit1.se.conv1.weight">
					<dim>4</dim>
					<dim>96</dim>
					<dim>1</dim>
					<dim>1</dim>
				</port>
			</output>
		</layer>
		<layer id="43" name="Convolution_1315" type="Convolution" version="opset1">
			<data strides="1, 1" dilations="1, 1" pads_begin="0, 0" pads_end="0, 0" auto_pad="explicit"/>
			<rt_info>
				<attribute name="fused_names" version="0" value="Convolution_1315"/>
			</rt_info>
			<input>
				<port id="0" precision="FP32">
					<dim>1</dim>
					<dim>96</dim>
					<dim>1</dim>
					<dim>1</dim>
				</port>
				<port id="1" precision="FP32">
					<dim>4</dim>
					<dim>96</dim>
					<dim>1</dim>
					<dim>1</dim>
				</port>
			</input>
			<output>
				<port id="2" precision="FP32">
					<dim>1</dim>
					<dim>4</dim>
					<dim>1</dim>
					<dim>1</dim>
				</port>
			</output>
		</layer>
		<layer id="44" name="Reshape_1335" type="Const" version="opset1">
			<data element_type="f32" shape="1, 4, 1, 1" offset="18452" size="16"/>
			<output>
				<port id="0" precision="FP32">
					<dim>1</dim>
					<dim>4</dim>
					<dim>1</dim>
					<dim>1</dim>
				</port>
			</output>
		</layer>
		<layer id="45" name="1275" type="Add" version="opset1">
			<data auto_broadcast="numpy"/>
			<rt_info>
				<attribute name="fused_names" version="0" value="1275, Concat_1334, Reshape_1335"/>
			</rt_info>
			<input>
				<port id="0" precision="FP32">
					<dim>1</dim>
					<dim>4</dim>
					<dim>1</dim>
					<dim>1</dim>
				</port>
				<port id="1" precision="FP32">
					<dim>1</dim>
					<dim>4</dim>
					<dim>1</dim>
					<dim>1</dim>
				</port>
			</input>
			<output>
				<port id="2" precision="FP32" names="1275">
					<dim>1</dim>
					<dim>4</dim>
					<dim>1</dim>
					<dim>1</dim>
				</port>
			</output>
		</layer>
		<layer id="46" name="1277" type="Swish" version="opset4">
			<rt_info>
				<attribute name="fused_names" version="0" value="1276, 1277"/>
			</rt_info>
			<input>
				<port id="0" precision="FP32">
					<dim>1</dim>
					<dim>4</dim>
					<dim>1</dim>
					<dim>1</dim>
				</port>
			</input>
			<output>
				<port id="1" precision="FP32" names="1277">
					<dim>1</dim>
					<dim>4</dim>
					<dim>1</dim>
					<dim>1</dim>
				</port>
			</output>
		</layer>
		<layer id="47" name="backbone.module.features.stage2.unit1.se.conv2.weight" type="Const" version="opset1">
			<data element_type="f32" shape="96, 4, 1, 1" offset="18468" size="1536"/>
			<rt_info>
				<attribute name="fused_names" version="0" value="backbone.module.features.stage2.unit1.se.conv2.weight"/>
			</rt_info>
			<output>
				<port id="0" precision="FP32" names="backbone.module.features.stage2.unit1.se.conv2.weight">
					<dim>96</dim>
					<dim>4</dim>
					<dim>1</dim>
					<dim>1</dim>
				</port>
			</output>
		</layer>
		<layer id="48" name="Convolution_1365" type="Convolution" version="opset1">
			<data strides="1, 1" dilations="1, 1" pads_begin="0, 0" pads_end="0, 0" auto_pad="explicit"/>
			<rt_info>
				<attribute name="fused_names" version="0" value="Convolution_1365"/>
			</rt_info>
			<input>
				<port id="0" precision="FP32">
					<dim>1</dim>
					<dim>4</dim>
					<dim>1</dim>
					<dim>1</dim>
				</port>
				<port id="1" precision="FP32">
					<dim>96</dim>
					<dim>4</dim>
					<dim>1</dim>
					<dim>1</dim>
				</port>
			</input>
			<output>
				<port id="2" precision="FP32">
					<dim>1</dim>
					<dim>96</dim>
					<dim>1</dim>
					<dim>1</dim>
				</port>
			</output>
		</layer>
		<layer id="49" name="Reshape_1385" type="Const" version="opset1">
			<data element_type="f32" shape="1, 96, 1, 1" offset="20004" size="384"/>
			<output>
				<port id="0" precision="FP32">
					<dim>1</dim>
					<dim>96</dim>
					<dim>1</dim>
					<dim>1</dim>
				</port>
			</output>
		</layer>
		<layer id="50" name="1278" type="Add" version="opset1">
			<data auto_broadcast="numpy"/>
			<rt_info>
				<attribute name="fused_names" version="0" value="1278, Concat_1384, Reshape_1385"/>
			</rt_info>
			<input>
				<port id="0" precision="FP32">
					<dim>1</dim>
					<dim>96</dim>
					<dim>1</dim>
					<dim>1</dim>
				</port>
				<port id="1" precision="FP32">
					<dim>1</dim>
					<dim>96</dim>
					<dim>1</dim>
					<dim>1</dim>
				</port>
			</input>
			<output>
				<port id="2" precision="FP32" names="1278">
					<dim>1</dim>
					<dim>96</dim>
					<dim>1</dim>
					<dim>1</dim>
				</port>
			</output>
		</layer>
		<layer id="51" name="1279" type="Sigmoid" version="opset1">
			<rt_info>
				<attribute name="fused_names" version="0" value="1279"/>
			</rt_info>
			<input>
				<port id="0" precision="FP32">
					<dim>1</dim>
					<dim>96</dim>
					<dim>1</dim>
					<dim>1</dim>
				</port>
			</input>
			<output>
				<port id="1" precision="FP32" names="1279">
					<dim>1</dim>
					<dim>96</dim>
					<dim>1</dim>
					<dim>1</dim>
				</port>
			</output>
		</layer>
		<layer id="52" name="1280" type="Multiply" version="opset1">
			<data auto_broadcast="numpy"/>
			<rt_info>
				<attribute name="fused_names" version="0" value="1280"/>
			</rt_info>
			<input>
				<port id="0" precision="FP32">
					<dim>1</dim>
					<dim>96</dim>
					<dim>72</dim>
					<dim>72</dim>
				</port>
				<port id="1" precision="FP32">
					<dim>1</dim>
					<dim>96</dim>
					<dim>1</dim>
					<dim>1</dim>
				</port>
			</input>
			<output>
				<port id="2" precision="FP32" names="1280">
					<dim>1</dim>
					<dim>96</dim>
					<dim>72</dim>
					<dim>72</dim>
				</port>
			</output>
		</layer>
		<layer id="53" name="Multiply_63050" type="Const" version="opset1">
			<data element_type="f32" shape="24, 96, 1, 1" offset="20388" size="9216"/>
			<output>
				<port id="0" precision="FP32">
					<dim>24</dim>
					<dim>96</dim>
					<dim>1</dim>
					<dim>1</dim>
				</port>
			</output>
		</layer>
		<layer id="54" name="Multiply_61748" type="Convolution" version="opset1">
			<data strides="1, 1" dilations="1, 1" pads_begin="0, 0" pads_end="0, 0" auto_pad="explicit"/>
			<rt_info>
				<attribute name="fused_names" version="0" value="1281, 1282, backbone.module.features.stage2.unit1.conv3.bn.bias, backbone.module.features.stage2.unit1.conv3.bn.running_mean, backbone.module.features.stage2.unit1.conv3.bn.running_var, backbone.module.features.stage2.unit1.conv3.bn.weight"/>
			</rt_info>
			<input>
				<port id="0" precision="FP32">
					<dim>1</dim>
					<dim>96</dim>
					<dim>72</dim>
					<dim>72</dim>
				</port>
				<port id="1" precision="FP32">
					<dim>24</dim>
					<dim>96</dim>
					<dim>1</dim>
					<dim>1</dim>
				</port>
			</input>
			<output>
				<port id="2" precision="FP32">
					<dim>1</dim>
					<dim>24</dim>
					<dim>72</dim>
					<dim>72</dim>
				</port>
			</output>
		</layer>
		<layer id="55" name="Constant_61753" type="Const" version="opset1">
			<data element_type="f32" shape="1, 24, 1, 1" offset="29604" size="96"/>
			<output>
				<port id="0" precision="FP32">
					<dim>1</dim>
					<dim>24</dim>
					<dim>1</dim>
					<dim>1</dim>
				</port>
			</output>
		</layer>
		<layer id="56" name="1282" type="Add" version="opset1">
			<data auto_broadcast="numpy"/>
			<rt_info>
				<attribute name="fused_names" version="0" value="1282, backbone.module.features.stage2.unit1.conv3.bn.bias, backbone.module.features.stage2.unit1.conv3.bn.running_mean, backbone.module.features.stage2.unit1.conv3.bn.running_var, backbone.module.features.stage2.unit1.conv3.bn.weight"/>
			</rt_info>
			<input>
				<port id="0" precision="FP32">
					<dim>1</dim>
					<dim>24</dim>
					<dim>72</dim>
					<dim>72</dim>
				</port>
				<port id="1" precision="FP32">
					<dim>1</dim>
					<dim>24</dim>
					<dim>1</dim>
					<dim>1</dim>
				</port>
			</input>
			<output>
				<port id="2" precision="FP32" names="1282">
					<dim>1</dim>
					<dim>24</dim>
					<dim>72</dim>
					<dim>72</dim>
				</port>
			</output>
		</layer>
		<layer id="57" name="Multiply_63059" type="Const" version="opset1">
			<data element_type="f32" shape="144, 24, 1, 1" offset="29700" size="13824"/>
			<output>
				<port id="0" precision="FP32">
					<dim>144</dim>
					<dim>24</dim>
					<dim>1</dim>
					<dim>1</dim>
				</port>
			</output>
		</layer>
		<layer id="58" name="Multiply_61755" type="Convolution" version="opset1">
			<data strides="1, 1" dilations="1, 1" pads_begin="0, 0" pads_end="0, 0" auto_pad="explicit"/>
			<rt_info>
				<attribute name="fused_names" version="0" value="1283, 1284, backbone.module.features.stage2.unit2.conv1.bn.bias, backbone.module.features.stage2.unit2.conv1.bn.running_mean, backbone.module.features.stage2.unit2.conv1.bn.running_var, backbone.module.features.stage2.unit2.conv1.bn.weight"/>
			</rt_info>
			<input>
				<port id="0" precision="FP32">
					<dim>1</dim>
					<dim>24</dim>
					<dim>72</dim>
					<dim>72</dim>
				</port>
				<port id="1" precision="FP32">
					<dim>144</dim>
					<dim>24</dim>
					<dim>1</dim>
					<dim>1</dim>
				</port>
			</input>
			<output>
				<port id="2" precision="FP32">
					<dim>1</dim>
					<dim>144</dim>
					<dim>72</dim>
					<dim>72</dim>
				</port>
			</output>
		</layer>
		<layer id="59" name="Constant_61760" type="Const" version="opset1">
			<data element_type="f32" shape="1, 144, 1, 1" offset="43524" size="576"/>
			<output>
				<port id="0" precision="FP32">
					<dim>1</dim>
					<dim>144</dim>
					<dim>1</dim>
					<dim>1</dim>
				</port>
			</output>
		</layer>
		<layer id="60" name="1284" type="Add" version="opset1">
			<data auto_broadcast="numpy"/>
			<rt_info>
				<attribute name="fused_names" version="0" value="1284, backbone.module.features.stage2.unit2.conv1.bn.bias, backbone.module.features.stage2.unit2.conv1.bn.running_mean, backbone.module.features.stage2.unit2.conv1.bn.running_var, backbone.module.features.stage2.unit2.conv1.bn.weight"/>
			</rt_info>
			<input>
				<port id="0" precision="FP32">
					<dim>1</dim>
					<dim>144</dim>
					<dim>72</dim>
					<dim>72</dim>
				</port>
				<port id="1" precision="FP32">
					<dim>1</dim>
					<dim>144</dim>
					<dim>1</dim>
					<dim>1</dim>
				</port>
			</input>
			<output>
				<port id="2" precision="FP32" names="1284">
					<dim>1</dim>
					<dim>144</dim>
					<dim>72</dim>
					<dim>72</dim>
				</port>
			</output>
		</layer>
		<layer id="61" name="1286" type="Swish" version="opset4">
			<rt_info>
				<attribute name="fused_names" version="0" value="1285, 1286"/>
			</rt_info>
			<input>
				<port id="0" precision="FP32">
					<dim>1</dim>
					<dim>144</dim>
					<dim>72</dim>
					<dim>72</dim>
				</port>
			</input>
			<output>
				<port id="1" precision="FP32" names="1286">
					<dim>1</dim>
					<dim>144</dim>
					<dim>72</dim>
					<dim>72</dim>
				</port>
			</output>
		</layer>
		<layer id="62" name="Multiply_63068" type="Const" version="opset1">
			<data element_type="f32" shape="144, 1, 1, 3, 3" offset="44100" size="5184"/>
			<output>
				<port id="0" precision="FP32">
					<dim>144</dim>
					<dim>1</dim>
					<dim>1</dim>
					<dim>3</dim>
					<dim>3</dim>
				</port>
			</output>
		</layer>
		<layer id="63" name="Multiply_61762" type="GroupConvolution" version="opset1">
			<data strides="1, 1" pads_begin="1, 1" pads_end="1, 1" dilations="1, 1" auto_pad="explicit"/>
			<rt_info>
				<attribute name="fused_names" version="0" value="1288, backbone.module.features.stage2.unit2.conv2.bn.bias, backbone.module.features.stage2.unit2.conv2.bn.running_mean, backbone.module.features.stage2.unit2.conv2.bn.running_var, backbone.module.features.stage2.unit2.conv2.bn.weight"/>
			</rt_info>
			<input>
				<port id="0" precision="FP32">
					<dim>1</dim>
					<dim>144</dim>
					<dim>72</dim>
					<dim>72</dim>
				</port>
				<port id="1" precision="FP32">
					<dim>144</dim>
					<dim>1</dim>
					<dim>1</dim>
					<dim>3</dim>
					<dim>3</dim>
				</port>
			</input>
			<output>
				<port id="2" precision="FP32" names="1287">
					<dim>1</dim>
					<dim>144</dim>
					<dim>72</dim>
					<dim>72</dim>
				</port>
			</output>
		</layer>
		<layer id="64" name="Constant_61767" type="Const" version="opset1">
			<data element_type="f32" shape="1, 144, 1, 1" offset="49284" size="576"/>
			<output>
				<port id="0" precision="FP32">
					<dim>1</dim>
					<dim>144</dim>
					<dim>1</dim>
					<dim>1</dim>
				</port>
			</output>
		</layer>
		<layer id="65" name="1288" type="Add" version="opset1">
			<data auto_broadcast="numpy"/>
			<rt_info>
				<attribute name="fused_names" version="0" value="1288, backbone.module.features.stage2.unit2.conv2.bn.bias, backbone.module.features.stage2.unit2.conv2.bn.running_mean, backbone.module.features.stage2.unit2.conv2.bn.running_var, backbone.module.features.stage2.unit2.conv2.bn.weight"/>
			</rt_info>
			<input>
				<port id="0" precision="FP32">
					<dim>1</dim>
					<dim>144</dim>
					<dim>72</dim>
					<dim>72</dim>
				</port>
				<port id="1" precision="FP32">
					<dim>1</dim>
					<dim>144</dim>
					<dim>1</dim>
					<dim>1</dim>
				</port>
			</input>
			<output>
				<port id="2" precision="FP32" names="1288">
					<dim>1</dim>
					<dim>144</dim>
					<dim>72</dim>
					<dim>72</dim>
				</port>
			</output>
		</layer>
		<layer id="66" name="1290" type="Swish" version="opset4">
			<rt_info>
				<attribute name="fused_names" version="0" value="1289, 1290"/>
			</rt_info>
			<input>
				<port id="0" precision="FP32">
					<dim>1</dim>
					<dim>144</dim>
					<dim>72</dim>
					<dim>72</dim>
				</port>
			</input>
			<output>
				<port id="1" precision="FP32" names="1290">
					<dim>1</dim>
					<dim>144</dim>
					<dim>72</dim>
					<dim>72</dim>
				</port>
			</output>
		</layer>
		<layer id="67" name="Range_1508" type="Const" version="opset1">
			<data element_type="i64" shape="2" offset="3660" size="16"/>
			<output>
				<port id="0" precision="I64">
					<dim>2</dim>
				</port>
			</output>
		</layer>
		<layer id="68" name="1291" type="ReduceMean" version="opset1">
			<data keep_dims="true"/>
			<rt_info>
				<attribute name="fused_names" version="0" value="1291, Range_1508"/>
			</rt_info>
			<input>
				<port id="0" precision="FP32">
					<dim>1</dim>
					<dim>144</dim>
					<dim>72</dim>
					<dim>72</dim>
				</port>
				<port id="1" precision="I64">
					<dim>2</dim>
				</port>
			</input>
			<output>
				<port id="2" precision="FP32" names="1291">
					<dim>1</dim>
					<dim>144</dim>
					<dim>1</dim>
					<dim>1</dim>
				</port>
			</output>
		</layer>
		<layer id="69" name="backbone.module.features.stage2.unit2.se.conv1.weight" type="Const" version="opset1">
			<data element_type="f32" shape="6, 144, 1, 1" offset="49860" size="3456"/>
			<rt_info>
				<attribute name="fused_names" version="0" value="backbone.module.features.stage2.unit2.se.conv1.weight"/>
			</rt_info>
			<output>
				<port id="0" precision="FP32" names="backbone.module.features.stage2.unit2.se.conv1.weight">
					<dim>6</dim>
					<dim>144</dim>
					<dim>1</dim>
					<dim>1</dim>
				</port>
			</output>
		</layer>
		<layer id="70" name="Convolution_1533" type="Convolution" version="opset1">
			<data strides="1, 1" dilations="1, 1" pads_begin="0, 0" pads_end="0, 0" auto_pad="explicit"/>
			<rt_info>
				<attribute name="fused_names" version="0" value="Convolution_1533"/>
			</rt_info>
			<input>
				<port id="0" precision="FP32">
					<dim>1</dim>
					<dim>144</dim>
					<dim>1</dim>
					<dim>1</dim>
				</port>
				<port id="1" precision="FP32">
					<dim>6</dim>
					<dim>144</dim>
					<dim>1</dim>
					<dim>1</dim>
				</port>
			</input>
			<output>
				<port id="2" precision="FP32">
					<dim>1</dim>
					<dim>6</dim>
					<dim>1</dim>
					<dim>1</dim>
				</port>
			</output>
		</layer>
		<layer id="71" name="Reshape_1553" type="Const" version="opset1">
			<data element_type="f32" shape="1, 6, 1, 1" offset="53316" size="24"/>
			<output>
				<port id="0" precision="FP32">
					<dim>1</dim>
					<dim>6</dim>
					<dim>1</dim>
					<dim>1</dim>
				</port>
			</output>
		</layer>
		<layer id="72" name="1292" type="Add" version="opset1">
			<data auto_broadcast="numpy"/>
			<rt_info>
				<attribute name="fused_names" version="0" value="1292, Concat_1552, Reshape_1553"/>
			</rt_info>
			<input>
				<port id="0" precision="FP32">
					<dim>1</dim>
					<dim>6</dim>
					<dim>1</dim>
					<dim>1</dim>
				</port>
				<port id="1" precision="FP32">
					<dim>1</dim>
					<dim>6</dim>
					<dim>1</dim>
					<dim>1</dim>
				</port>
			</input>
			<output>
				<port id="2" precision="FP32" names="1292">
					<dim>1</dim>
					<dim>6</dim>
					<dim>1</dim>
					<dim>1</dim>
				</port>
			</output>
		</layer>
		<layer id="73" name="1294" type="Swish" version="opset4">
			<rt_info>
				<attribute name="fused_names" version="0" value="1293, 1294"/>
			</rt_info>
			<input>
				<port id="0" precision="FP32">
					<dim>1</dim>
					<dim>6</dim>
					<dim>1</dim>
					<dim>1</dim>
				</port>
			</input>
			<output>
				<port id="1" precision="FP32" names="1294">
					<dim>1</dim>
					<dim>6</dim>
					<dim>1</dim>
					<dim>1</dim>
				</port>
			</output>
		</layer>
		<layer id="74" name="backbone.module.features.stage2.unit2.se.conv2.weight" type="Const" version="opset1">
			<data element_type="f32" shape="144, 6, 1, 1" offset="53340" size="3456"/>
			<rt_info>
				<attribute name="fused_names" version="0" value="backbone.module.features.stage2.unit2.se.conv2.weight"/>
			</rt_info>
			<output>
				<port id="0" precision="FP32" names="backbone.module.features.stage2.unit2.se.conv2.weight">
					<dim>144</dim>
					<dim>6</dim>
					<dim>1</dim>
					<dim>1</dim>
				</port>
			</output>
		</layer>
		<layer id="75" name="Convolution_1583" type="Convolution" version="opset1">
			<data strides="1, 1" dilations="1, 1" pads_begin="0, 0" pads_end="0, 0" auto_pad="explicit"/>
			<rt_info>
				<attribute name="fused_names" version="0" value="Convolution_1583"/>
			</rt_info>
			<input>
				<port id="0" precision="FP32">
					<dim>1</dim>
					<dim>6</dim>
					<dim>1</dim>
					<dim>1</dim>
				</port>
				<port id="1" precision="FP32">
					<dim>144</dim>
					<dim>6</dim>
					<dim>1</dim>
					<dim>1</dim>
				</port>
			</input>
			<output>
				<port id="2" precision="FP32">
					<dim>1</dim>
					<dim>144</dim>
					<dim>1</dim>
					<dim>1</dim>
				</port>
			</output>
		</layer>
		<layer id="76" name="Reshape_1603" type="Const" version="opset1">
			<data element_type="f32" shape="1, 144, 1, 1" offset="56796" size="576"/>
			<output>
				<port id="0" precision="FP32">
					<dim>1</dim>
					<dim>144</dim>
					<dim>1</dim>
					<dim>1</dim>
				</port>
			</output>
		</layer>
		<layer id="77" name="1295" type="Add" version="opset1">
			<data auto_broadcast="numpy"/>
			<rt_info>
				<attribute name="fused_names" version="0" value="1295, Concat_1602, Reshape_1603"/>
			</rt_info>
			<input>
				<port id="0" precision="FP32">
					<dim>1</dim>
					<dim>144</dim>
					<dim>1</dim>
					<dim>1</dim>
				</port>
				<port id="1" precision="FP32">
					<dim>1</dim>
					<dim>144</dim>
					<dim>1</dim>
					<dim>1</dim>
				</port>
			</input>
			<output>
				<port id="2" precision="FP32" names="1295">
					<dim>1</dim>
					<dim>144</dim>
					<dim>1</dim>
					<dim>1</dim>
				</port>
			</output>
		</layer>
		<layer id="78" name="1296" type="Sigmoid" version="opset1">
			<rt_info>
				<attribute name="fused_names" version="0" value="1296"/>
			</rt_info>
			<input>
				<port id="0" precision="FP32">
					<dim>1</dim>
					<dim>144</dim>
					<dim>1</dim>
					<dim>1</dim>
				</port>
			</input>
			<output>
				<port id="1" precision="FP32" names="1296">
					<dim>1</dim>
					<dim>144</dim>
					<dim>1</dim>
					<dim>1</dim>
				</port>
			</output>
		</layer>
		<layer id="79" name="1297" type="Multiply" version="opset1">
			<data auto_broadcast="numpy"/>
			<rt_info>
				<attribute name="fused_names" version="0" value="1297"/>
			</rt_info>
			<input>
				<port id="0" precision="FP32">
					<dim>1</dim>
					<dim>144</dim>
					<dim>72</dim>
					<dim>72</dim>
				</port>
				<port id="1" precision="FP32">
					<dim>1</dim>
					<dim>144</dim>
					<dim>1</dim>
					<dim>1</dim>
				</port>
			</input>
			<output>
				<port id="2" precision="FP32" names="1297">
					<dim>1</dim>
					<dim>144</dim>
					<dim>72</dim>
					<dim>72</dim>
				</port>
			</output>
		</layer>
		<layer id="80" name="Multiply_63076" type="Const" version="opset1">
			<data element_type="f32" shape="24, 144, 1, 1" offset="57372" size="13824"/>
			<output>
				<port id="0" precision="FP32">
					<dim>24</dim>
					<dim>144</dim>
					<dim>1</dim>
					<dim>1</dim>
				</port>
			</output>
		</layer>
		<layer id="81" name="Multiply_61769" type="Convolution" version="opset1">
			<data strides="1, 1" dilations="1, 1" pads_begin="0, 0" pads_end="0, 0" auto_pad="explicit"/>
			<rt_info>
				<attribute name="fused_names" version="0" value="1298, 1299, backbone.module.features.stage2.unit2.conv3.bn.bias, backbone.module.features.stage2.unit2.conv3.bn.running_mean, backbone.module.features.stage2.unit2.conv3.bn.running_var, backbone.module.features.stage2.unit2.conv3.bn.weight"/>
			</rt_info>
			<input>
				<port id="0" precision="FP32">
					<dim>1</dim>
					<dim>144</dim>
					<dim>72</dim>
					<dim>72</dim>
				</port>
				<port id="1" precision="FP32">
					<dim>24</dim>
					<dim>144</dim>
					<dim>1</dim>
					<dim>1</dim>
				</port>
			</input>
			<output>
				<port id="2" precision="FP32">
					<dim>1</dim>
					<dim>24</dim>
					<dim>72</dim>
					<dim>72</dim>
				</port>
			</output>
		</layer>
		<layer id="82" name="Constant_61774" type="Const" version="opset1">
			<data element_type="f32" shape="1, 24, 1, 1" offset="71196" size="96"/>
			<output>
				<port id="0" precision="FP32">
					<dim>1</dim>
					<dim>24</dim>
					<dim>1</dim>
					<dim>1</dim>
				</port>
			</output>
		</layer>
		<layer id="83" name="1299" type="Add" version="opset1">
			<data auto_broadcast="numpy"/>
			<rt_info>
				<attribute name="fused_names" version="0" value="1299, backbone.module.features.stage2.unit2.conv3.bn.bias, backbone.module.features.stage2.unit2.conv3.bn.running_mean, backbone.module.features.stage2.unit2.conv3.bn.running_var, backbone.module.features.stage2.unit2.conv3.bn.weight"/>
			</rt_info>
			<input>
				<port id="0" precision="FP32">
					<dim>1</dim>
					<dim>24</dim>
					<dim>72</dim>
					<dim>72</dim>
				</port>
				<port id="1" precision="FP32">
					<dim>1</dim>
					<dim>24</dim>
					<dim>1</dim>
					<dim>1</dim>
				</port>
			</input>
			<output>
				<port id="2" precision="FP32" names="1299">
					<dim>1</dim>
					<dim>24</dim>
					<dim>72</dim>
					<dim>72</dim>
				</port>
			</output>
		</layer>
		<layer id="84" name="1300" type="Add" version="opset1">
			<data auto_broadcast="numpy"/>
			<rt_info>
				<attribute name="fused_names" version="0" value="1300"/>
			</rt_info>
			<input>
				<port id="0" precision="FP32">
					<dim>1</dim>
					<dim>24</dim>
					<dim>72</dim>
					<dim>72</dim>
				</port>
				<port id="1" precision="FP32">
					<dim>1</dim>
					<dim>24</dim>
					<dim>72</dim>
					<dim>72</dim>
				</port>
			</input>
			<output>
				<port id="2" precision="FP32" names="1300">
					<dim>1</dim>
					<dim>24</dim>
					<dim>72</dim>
					<dim>72</dim>
				</port>
			</output>
		</layer>
		<layer id="85" name="Multiply_63085" type="Const" version="opset1">
			<data element_type="f32" shape="21, 24, 3, 3" offset="71292" size="18144"/>
			<output>
				<port id="0" precision="FP32">
					<dim>21</dim>
					<dim>24</dim>
					<dim>3</dim>
					<dim>3</dim>
				</port>
			</output>
		</layer>
		<layer id="86" name="Multiply_61776" type="Convolution" version="opset1">
			<data strides="1, 1" dilations="1, 1" pads_begin="1, 1" pads_end="1, 1" auto_pad="explicit"/>
			<rt_info>
				<attribute name="fused_names" version="0" value="1512, 1513, backbone.module.transition.0.1.bias, backbone.module.transition.0.1.running_mean, backbone.module.transition.0.1.running_var, backbone.module.transition.0.1.weight"/>
			</rt_info>
			<input>
				<port id="0" precision="FP32">
					<dim>1</dim>
					<dim>24</dim>
					<dim>72</dim>
					<dim>72</dim>
				</port>
				<port id="1" precision="FP32">
					<dim>21</dim>
					<dim>24</dim>
					<dim>3</dim>
					<dim>3</dim>
				</port>
			</input>
			<output>
				<port id="2" precision="FP32">
					<dim>1</dim>
					<dim>21</dim>
					<dim>72</dim>
					<dim>72</dim>
				</port>
			</output>
		</layer>
		<layer id="87" name="Constant_61781" type="Const" version="opset1">
			<data element_type="f32" shape="1, 21, 1, 1" offset="89436" size="84"/>
			<output>
				<port id="0" precision="FP32">
					<dim>1</dim>
					<dim>21</dim>
					<dim>1</dim>
					<dim>1</dim>
				</port>
			</output>
		</layer>
		<layer id="88" name="1513" type="Add" version="opset1">
			<data auto_broadcast="numpy"/>
			<rt_info>
				<attribute name="fused_names" version="0" value="1513, backbone.module.transition.0.1.bias, backbone.module.transition.0.1.running_mean, backbone.module.transition.0.1.running_var, backbone.module.transition.0.1.weight"/>
			</rt_info>
			<input>
				<port id="0" precision="FP32">
					<dim>1</dim>
					<dim>21</dim>
					<dim>72</dim>
					<dim>72</dim>
				</port>
				<port id="1" precision="FP32">
					<dim>1</dim>
					<dim>21</dim>
					<dim>1</dim>
					<dim>1</dim>
				</port>
			</input>
			<output>
				<port id="2" precision="FP32" names="1513">
					<dim>1</dim>
					<dim>21</dim>
					<dim>72</dim>
					<dim>72</dim>
				</port>
			</output>
		</layer>
		<layer id="89" name="1514" type="ReLU" version="opset1">
			<rt_info>
				<attribute name="fused_names" version="0" value="1514"/>
			</rt_info>
			<input>
				<port id="0" precision="FP32">
					<dim>1</dim>
					<dim>21</dim>
					<dim>72</dim>
					<dim>72</dim>
				</port>
			</input>
			<output>
				<port id="1" precision="FP32" names="1514">
					<dim>1</dim>
					<dim>21</dim>
					<dim>72</dim>
					<dim>72</dim>
				</port>
			</output>
		</layer>
		<layer id="90" name="Multiply_63094" type="Const" version="opset1">
			<data element_type="f32" shape="21, 21, 3, 3" offset="89520" size="15876"/>
			<output>
				<port id="0" precision="FP32">
					<dim>21</dim>
					<dim>21</dim>
					<dim>3</dim>
					<dim>3</dim>
				</port>
			</output>
		</layer>
		<layer id="91" name="Multiply_61783" type="Convolution" version="opset1">
			<data strides="1, 1" dilations="1, 1" pads_begin="1, 1" pads_end="1, 1" auto_pad="explicit"/>
			<rt_info>
				<attribute name="fused_names" version="0" value="1524, 1525, backbone.module.stages.0.0.branches.0.0.bn1.bias, backbone.module.stages.0.0.branches.0.0.bn1.running_mean, backbone.module.stages.0.0.branches.0.0.bn1.running_var, backbone.module.stages.0.0.branches.0.0.bn1.weight"/>
			</rt_info>
			<input>
				<port id="0" precision="FP32">
					<dim>1</dim>
					<dim>21</dim>
					<dim>72</dim>
					<dim>72</dim>
				</port>
				<port id="1" precision="FP32">
					<dim>21</dim>
					<dim>21</dim>
					<dim>3</dim>
					<dim>3</dim>
				</port>
			</input>
			<output>
				<port id="2" precision="FP32">
					<dim>1</dim>
					<dim>21</dim>
					<dim>72</dim>
					<dim>72</dim>
				</port>
			</output>
		</layer>
		<layer id="92" name="Constant_61788" type="Const" version="opset1">
			<data element_type="f32" shape="1, 21, 1, 1" offset="105396" size="84"/>
			<output>
				<port id="0" precision="FP32">
					<dim>1</dim>
					<dim>21</dim>
					<dim>1</dim>
					<dim>1</dim>
				</port>
			</output>
		</layer>
		<layer id="93" name="1525" type="Add" version="opset1">
			<data auto_broadcast="numpy"/>
			<rt_info>
				<attribute name="fused_names" version="0" value="1525, backbone.module.stages.0.0.branches.0.0.bn1.bias, backbone.module.stages.0.0.branches.0.0.bn1.running_mean, backbone.module.stages.0.0.branches.0.0.bn1.running_var, backbone.module.stages.0.0.branches.0.0.bn1.weight"/>
			</rt_info>
			<input>
				<port id="0" precision="FP32">
					<dim>1</dim>
					<dim>21</dim>
					<dim>72</dim>
					<dim>72</dim>
				</port>
				<port id="1" precision="FP32">
					<dim>1</dim>
					<dim>21</dim>
					<dim>1</dim>
					<dim>1</dim>
				</port>
			</input>
			<output>
				<port id="2" precision="FP32" names="1525">
					<dim>1</dim>
					<dim>21</dim>
					<dim>72</dim>
					<dim>72</dim>
				</port>
			</output>
		</layer>
		<layer id="94" name="1526" type="ReLU" version="opset1">
			<rt_info>
				<attribute name="fused_names" version="0" value="1526"/>
			</rt_info>
			<input>
				<port id="0" precision="FP32">
					<dim>1</dim>
					<dim>21</dim>
					<dim>72</dim>
					<dim>72</dim>
				</port>
			</input>
			<output>
				<port id="1" precision="FP32" names="1526">
					<dim>1</dim>
					<dim>21</dim>
					<dim>72</dim>
					<dim>72</dim>
				</port>
			</output>
		</layer>
		<layer id="95" name="Multiply_63103" type="Const" version="opset1">
			<data element_type="f32" shape="21, 21, 3, 3" offset="105480" size="15876"/>
			<output>
				<port id="0" precision="FP32">
					<dim>21</dim>
					<dim>21</dim>
					<dim>3</dim>
					<dim>3</dim>
				</port>
			</output>
		</layer>
		<layer id="96" name="Multiply_61790" type="Convolution" version="opset1">
			<data strides="1, 1" dilations="1, 1" pads_begin="1, 1" pads_end="1, 1" auto_pad="explicit"/>
			<rt_info>
				<attribute name="fused_names" version="0" value="1527, 1528, backbone.module.stages.0.0.branches.0.0.bn2.bias, backbone.module.stages.0.0.branches.0.0.bn2.running_mean, backbone.module.stages.0.0.branches.0.0.bn2.running_var, backbone.module.stages.0.0.branches.0.0.bn2.weight"/>
			</rt_info>
			<input>
				<port id="0" precision="FP32">
					<dim>1</dim>
					<dim>21</dim>
					<dim>72</dim>
					<dim>72</dim>
				</port>
				<port id="1" precision="FP32">
					<dim>21</dim>
					<dim>21</dim>
					<dim>3</dim>
					<dim>3</dim>
				</port>
			</input>
			<output>
				<port id="2" precision="FP32">
					<dim>1</dim>
					<dim>21</dim>
					<dim>72</dim>
					<dim>72</dim>
				</port>
			</output>
		</layer>
		<layer id="97" name="Constant_61795" type="Const" version="opset1">
			<data element_type="f32" shape="1, 21, 1, 1" offset="121356" size="84"/>
			<output>
				<port id="0" precision="FP32">
					<dim>1</dim>
					<dim>21</dim>
					<dim>1</dim>
					<dim>1</dim>
				</port>
			</output>
		</layer>
		<layer id="98" name="1528" type="Add" version="opset1">
			<data auto_broadcast="numpy"/>
			<rt_info>
				<attribute name="fused_names" version="0" value="1528, backbone.module.stages.0.0.branches.0.0.bn2.bias, backbone.module.stages.0.0.branches.0.0.bn2.running_mean, backbone.module.stages.0.0.branches.0.0.bn2.running_var, backbone.module.stages.0.0.branches.0.0.bn2.weight"/>
			</rt_info>
			<input>
				<port id="0" precision="FP32">
					<dim>1</dim>
					<dim>21</dim>
					<dim>72</dim>
					<dim>72</dim>
				</port>
				<port id="1" precision="FP32">
					<dim>1</dim>
					<dim>21</dim>
					<dim>1</dim>
					<dim>1</dim>
				</port>
			</input>
			<output>
				<port id="2" precision="FP32" names="1528">
					<dim>1</dim>
					<dim>21</dim>
					<dim>72</dim>
					<dim>72</dim>
				</port>
			</output>
		</layer>
		<layer id="99" name="1529" type="Add" version="opset1">
			<data auto_broadcast="numpy"/>
			<rt_info>
				<attribute name="fused_names" version="0" value="1529"/>
			</rt_info>
			<input>
				<port id="0" precision="FP32">
					<dim>1</dim>
					<dim>21</dim>
					<dim>72</dim>
					<dim>72</dim>
				</port>
				<port id="1" precision="FP32">
					<dim>1</dim>
					<dim>21</dim>
					<dim>72</dim>
					<dim>72</dim>
				</port>
			</input>
			<output>
				<port id="2" precision="FP32" names="1529">
					<dim>1</dim>
					<dim>21</dim>
					<dim>72</dim>
					<dim>72</dim>
				</port>
			</output>
		</layer>
		<layer id="100" name="1530" type="ReLU" version="opset1">
			<rt_info>
				<attribute name="fused_names" version="0" value="1530"/>
			</rt_info>
			<input>
				<port id="0" precision="FP32">
					<dim>1</dim>
					<dim>21</dim>
					<dim>72</dim>
					<dim>72</dim>
				</port>
			</input>
			<output>
				<port id="1" precision="FP32" names="1530">
					<dim>1</dim>
					<dim>21</dim>
					<dim>72</dim>
					<dim>72</dim>
				</port>
			</output>
		</layer>
		<layer id="101" name="Multiply_63112" type="Const" version="opset1">
			<data element_type="f32" shape="21, 21, 3, 3" offset="121440" size="15876"/>
			<output>
				<port id="0" precision="FP32">
					<dim>21</dim>
					<dim>21</dim>
					<dim>3</dim>
					<dim>3</dim>
				</port>
			</output>
		</layer>
		<layer id="102" name="Multiply_61797" type="Convolution" version="opset1">
			<data strides="1, 1" dilations="1, 1" pads_begin="1, 1" pads_end="1, 1" auto_pad="explicit"/>
			<rt_info>
				<attribute name="fused_names" version="0" value="1531, 1532, backbone.module.stages.0.0.branches.0.1.bn1.bias, backbone.module.stages.0.0.branches.0.1.bn1.running_mean, backbone.module.stages.0.0.branches.0.1.bn1.running_var, backbone.module.stages.0.0.branches.0.1.bn1.weight"/>
			</rt_info>
			<input>
				<port id="0" precision="FP32">
					<dim>1</dim>
					<dim>21</dim>
					<dim>72</dim>
					<dim>72</dim>
				</port>
				<port id="1" precision="FP32">
					<dim>21</dim>
					<dim>21</dim>
					<dim>3</dim>
					<dim>3</dim>
				</port>
			</input>
			<output>
				<port id="2" precision="FP32">
					<dim>1</dim>
					<dim>21</dim>
					<dim>72</dim>
					<dim>72</dim>
				</port>
			</output>
		</layer>
		<layer id="103" name="Constant_61802" type="Const" version="opset1">
			<data element_type="f32" shape="1, 21, 1, 1" offset="137316" size="84"/>
			<output>
				<port id="0" precision="FP32">
					<dim>1</dim>
					<dim>21</dim>
					<dim>1</dim>
					<dim>1</dim>
				</port>
			</output>
		</layer>
		<layer id="104" name="1532" type="Add" version="opset1">
			<data auto_broadcast="numpy"/>
			<rt_info>
				<attribute name="fused_names" version="0" value="1532, backbone.module.stages.0.0.branches.0.1.bn1.bias, backbone.module.stages.0.0.branches.0.1.bn1.running_mean, backbone.module.stages.0.0.branches.0.1.bn1.running_var, backbone.module.stages.0.0.branches.0.1.bn1.weight"/>
			</rt_info>
			<input>
				<port id="0" precision="FP32">
					<dim>1</dim>
					<dim>21</dim>
					<dim>72</dim>
					<dim>72</dim>
				</port>
				<port id="1" precision="FP32">
					<dim>1</dim>
					<dim>21</dim>
					<dim>1</dim>
					<dim>1</dim>
				</port>
			</input>
			<output>
				<port id="2" precision="FP32" names="1532">
					<dim>1</dim>
					<dim>21</dim>
					<dim>72</dim>
					<dim>72</dim>
				</port>
			</output>
		</layer>
		<layer id="105" name="1533" type="ReLU" version="opset1">
			<rt_info>
				<attribute name="fused_names" version="0" value="1533"/>
			</rt_info>
			<input>
				<port id="0" precision="FP32">
					<dim>1</dim>
					<dim>21</dim>
					<dim>72</dim>
					<dim>72</dim>
				</port>
			</input>
			<output>
				<port id="1" precision="FP32" names="1533">
					<dim>1</dim>
					<dim>21</dim>
					<dim>72</dim>
					<dim>72</dim>
				</port>
			</output>
		</layer>
		<layer id="106" name="Multiply_63121" type="Const" version="opset1">
			<data element_type="f32" shape="21, 21, 3, 3" offset="137400" size="15876"/>
			<output>
				<port id="0" precision="FP32">
					<dim>21</dim>
					<dim>21</dim>
					<dim>3</dim>
					<dim>3</dim>
				</port>
			</output>
		</layer>
		<layer id="107" name="Multiply_61804" type="Convolution" version="opset1">
			<data strides="1, 1" dilations="1, 1" pads_begin="1, 1" pads_end="1, 1" auto_pad="explicit"/>
			<rt_info>
				<attribute name="fused_names" version="0" value="1534, 1535, backbone.module.stages.0.0.branches.0.1.bn2.bias, backbone.module.stages.0.0.branches.0.1.bn2.running_mean, backbone.module.stages.0.0.branches.0.1.bn2.running_var, backbone.module.stages.0.0.branches.0.1.bn2.weight"/>
			</rt_info>
			<input>
				<port id="0" precision="FP32">
					<dim>1</dim>
					<dim>21</dim>
					<dim>72</dim>
					<dim>72</dim>
				</port>
				<port id="1" precision="FP32">
					<dim>21</dim>
					<dim>21</dim>
					<dim>3</dim>
					<dim>3</dim>
				</port>
			</input>
			<output>
				<port id="2" precision="FP32">
					<dim>1</dim>
					<dim>21</dim>
					<dim>72</dim>
					<dim>72</dim>
				</port>
			</output>
		</layer>
		<layer id="108" name="Constant_61809" type="Const" version="opset1">
			<data element_type="f32" shape="1, 21, 1, 1" offset="153276" size="84"/>
			<output>
				<port id="0" precision="FP32">
					<dim>1</dim>
					<dim>21</dim>
					<dim>1</dim>
					<dim>1</dim>
				</port>
			</output>
		</layer>
		<layer id="109" name="1535" type="Add" version="opset1">
			<data auto_broadcast="numpy"/>
			<rt_info>
				<attribute name="fused_names" version="0" value="1535, backbone.module.stages.0.0.branches.0.1.bn2.bias, backbone.module.stages.0.0.branches.0.1.bn2.running_mean, backbone.module.stages.0.0.branches.0.1.bn2.running_var, backbone.module.stages.0.0.branches.0.1.bn2.weight"/>
			</rt_info>
			<input>
				<port id="0" precision="FP32">
					<dim>1</dim>
					<dim>21</dim>
					<dim>72</dim>
					<dim>72</dim>
				</port>
				<port id="1" precision="FP32">
					<dim>1</dim>
					<dim>21</dim>
					<dim>1</dim>
					<dim>1</dim>
				</port>
			</input>
			<output>
				<port id="2" precision="FP32" names="1535">
					<dim>1</dim>
					<dim>21</dim>
					<dim>72</dim>
					<dim>72</dim>
				</port>
			</output>
		</layer>
		<layer id="110" name="1536" type="Add" version="opset1">
			<data auto_broadcast="numpy"/>
			<rt_info>
				<attribute name="fused_names" version="0" value="1536"/>
			</rt_info>
			<input>
				<port id="0" precision="FP32">
					<dim>1</dim>
					<dim>21</dim>
					<dim>72</dim>
					<dim>72</dim>
				</port>
				<port id="1" precision="FP32">
					<dim>1</dim>
					<dim>21</dim>
					<dim>72</dim>
					<dim>72</dim>
				</port>
			</input>
			<output>
				<port id="2" precision="FP32" names="1536">
					<dim>1</dim>
					<dim>21</dim>
					<dim>72</dim>
					<dim>72</dim>
				</port>
			</output>
		</layer>
		<layer id="111" name="1537" type="ReLU" version="opset1">
			<rt_info>
				<attribute name="fused_names" version="0" value="1537, 1553"/>
			</rt_info>
			<input>
				<port id="0" precision="FP32">
					<dim>1</dim>
					<dim>21</dim>
					<dim>72</dim>
					<dim>72</dim>
				</port>
			</input>
			<output>
				<port id="1" precision="FP32" names="1537,1553">
					<dim>1</dim>
					<dim>21</dim>
					<dim>72</dim>
					<dim>72</dim>
				</port>
			</output>
		</layer>
		<layer id="112" name="Multiply_63130" type="Const" version="opset1">
			<data element_type="f32" shape="144, 24, 1, 1" offset="153360" size="13824"/>
			<output>
				<port id="0" precision="FP32">
					<dim>144</dim>
					<dim>24</dim>
					<dim>1</dim>
					<dim>1</dim>
				</port>
			</output>
		</layer>
		<layer id="113" name="Multiply_61811" type="Convolution" version="opset1">
			<data strides="1, 1" dilations="1, 1" pads_begin="0, 0" pads_end="0, 0" auto_pad="explicit"/>
			<rt_info>
				<attribute name="fused_names" version="0" value="1301, 1302, backbone.module.features.stage3.unit1.conv1.bn.bias, backbone.module.features.stage3.unit1.conv1.bn.running_mean, backbone.module.features.stage3.unit1.conv1.bn.running_var, backbone.module.features.stage3.unit1.conv1.bn.weight"/>
			</rt_info>
			<input>
				<port id="0" precision="FP32">
					<dim>1</dim>
					<dim>24</dim>
					<dim>72</dim>
					<dim>72</dim>
				</port>
				<port id="1" precision="FP32">
					<dim>144</dim>
					<dim>24</dim>
					<dim>1</dim>
					<dim>1</dim>
				</port>
			</input>
			<output>
				<port id="2" precision="FP32">
					<dim>1</dim>
					<dim>144</dim>
					<dim>72</dim>
					<dim>72</dim>
				</port>
			</output>
		</layer>
		<layer id="114" name="Constant_61816" type="Const" version="opset1">
			<data element_type="f32" shape="1, 144, 1, 1" offset="167184" size="576"/>
			<output>
				<port id="0" precision="FP32">
					<dim>1</dim>
					<dim>144</dim>
					<dim>1</dim>
					<dim>1</dim>
				</port>
			</output>
		</layer>
		<layer id="115" name="1302" type="Add" version="opset1">
			<data auto_broadcast="numpy"/>
			<rt_info>
				<attribute name="fused_names" version="0" value="1302, backbone.module.features.stage3.unit1.conv1.bn.bias, backbone.module.features.stage3.unit1.conv1.bn.running_mean, backbone.module.features.stage3.unit1.conv1.bn.running_var, backbone.module.features.stage3.unit1.conv1.bn.weight"/>
			</rt_info>
			<input>
				<port id="0" precision="FP32">
					<dim>1</dim>
					<dim>144</dim>
					<dim>72</dim>
					<dim>72</dim>
				</port>
				<port id="1" precision="FP32">
					<dim>1</dim>
					<dim>144</dim>
					<dim>1</dim>
					<dim>1</dim>
				</port>
			</input>
			<output>
				<port id="2" precision="FP32" names="1302">
					<dim>1</dim>
					<dim>144</dim>
					<dim>72</dim>
					<dim>72</dim>
				</port>
			</output>
		</layer>
		<layer id="116" name="1304" type="Swish" version="opset4">
			<rt_info>
				<attribute name="fused_names" version="0" value="1303, 1304"/>
			</rt_info>
			<input>
				<port id="0" precision="FP32">
					<dim>1</dim>
					<dim>144</dim>
					<dim>72</dim>
					<dim>72</dim>
				</port>
			</input>
			<output>
				<port id="1" precision="FP32" names="1304">
					<dim>1</dim>
					<dim>144</dim>
					<dim>72</dim>
					<dim>72</dim>
				</port>
			</output>
		</layer>
		<layer id="117" name="Multiply_63139" type="Const" version="opset1">
			<data element_type="f32" shape="144, 1, 1, 5, 5" offset="167760" size="14400"/>
			<output>
				<port id="0" precision="FP32">
					<dim>144</dim>
					<dim>1</dim>
					<dim>1</dim>
					<dim>5</dim>
					<dim>5</dim>
				</port>
			</output>
		</layer>
		<layer id="118" name="Multiply_61818" type="GroupConvolution" version="opset1">
			<data strides="2, 2" pads_begin="2, 2" pads_end="2, 2" dilations="1, 1" auto_pad="explicit"/>
			<rt_info>
				<attribute name="fused_names" version="0" value="1306, backbone.module.features.stage3.unit1.conv2.bn.bias, backbone.module.features.stage3.unit1.conv2.bn.running_mean, backbone.module.features.stage3.unit1.conv2.bn.running_var, backbone.module.features.stage3.unit1.conv2.bn.weight"/>
			</rt_info>
			<input>
				<port id="0" precision="FP32">
					<dim>1</dim>
					<dim>144</dim>
					<dim>72</dim>
					<dim>72</dim>
				</port>
				<port id="1" precision="FP32">
					<dim>144</dim>
					<dim>1</dim>
					<dim>1</dim>
					<dim>5</dim>
					<dim>5</dim>
				</port>
			</input>
			<output>
				<port id="2" precision="FP32" names="1305">
					<dim>1</dim>
					<dim>144</dim>
					<dim>36</dim>
					<dim>36</dim>
				</port>
			</output>
		</layer>
		<layer id="119" name="Constant_61823" type="Const" version="opset1">
			<data element_type="f32" shape="1, 144, 1, 1" offset="182160" size="576"/>
			<output>
				<port id="0" precision="FP32">
					<dim>1</dim>
					<dim>144</dim>
					<dim>1</dim>
					<dim>1</dim>
				</port>
			</output>
		</layer>
		<layer id="120" name="1306" type="Add" version="opset1">
			<data auto_broadcast="numpy"/>
			<rt_info>
				<attribute name="fused_names" version="0" value="1306, backbone.module.features.stage3.unit1.conv2.bn.bias, backbone.module.features.stage3.unit1.conv2.bn.running_mean, backbone.module.features.stage3.unit1.conv2.bn.running_var, backbone.module.features.stage3.unit1.conv2.bn.weight"/>
			</rt_info>
			<input>
				<port id="0" precision="FP32">
					<dim>1</dim>
					<dim>144</dim>
					<dim>36</dim>
					<dim>36</dim>
				</port>
				<port id="1" precision="FP32">
					<dim>1</dim>
					<dim>144</dim>
					<dim>1</dim>
					<dim>1</dim>
				</port>
			</input>
			<output>
				<port id="2" precision="FP32" names="1306">
					<dim>1</dim>
					<dim>144</dim>
					<dim>36</dim>
					<dim>36</dim>
				</port>
			</output>
		</layer>
		<layer id="121" name="1308" type="Swish" version="opset4">
			<rt_info>
				<attribute name="fused_names" version="0" value="1307, 1308"/>
			</rt_info>
			<input>
				<port id="0" precision="FP32">
					<dim>1</dim>
					<dim>144</dim>
					<dim>36</dim>
					<dim>36</dim>
				</port>
			</input>
			<output>
				<port id="1" precision="FP32" names="1308">
					<dim>1</dim>
					<dim>144</dim>
					<dim>36</dim>
					<dim>36</dim>
				</port>
			</output>
		</layer>
		<layer id="122" name="Range_1727" type="Const" version="opset1">
			<data element_type="i64" shape="2" offset="3660" size="16"/>
			<output>
				<port id="0" precision="I64">
					<dim>2</dim>
				</port>
			</output>
		</layer>
		<layer id="123" name="1309" type="ReduceMean" version="opset1">
			<data keep_dims="true"/>
			<rt_info>
				<attribute name="fused_names" version="0" value="1309, Range_1727"/>
			</rt_info>
			<input>
				<port id="0" precision="FP32">
					<dim>1</dim>
					<dim>144</dim>
					<dim>36</dim>
					<dim>36</dim>
				</port>
				<port id="1" precision="I64">
					<dim>2</dim>
				</port>
			</input>
			<output>
				<port id="2" precision="FP32" names="1309">
					<dim>1</dim>
					<dim>144</dim>
					<dim>1</dim>
					<dim>1</dim>
				</port>
			</output>
		</layer>
		<layer id="124" name="backbone.module.features.stage3.unit1.se.conv1.weight" type="Const" version="opset1">
			<data element_type="f32" shape="6, 144, 1, 1" offset="182736" size="3456"/>
			<rt_info>
				<attribute name="fused_names" version="0" value="backbone.module.features.stage3.unit1.se.conv1.weight"/>
			</rt_info>
			<output>
				<port id="0" precision="FP32" names="backbone.module.features.stage3.unit1.se.conv1.weight">
					<dim>6</dim>
					<dim>144</dim>
					<dim>1</dim>
					<dim>1</dim>
				</port>
			</output>
		</layer>
		<layer id="125" name="Convolution_1752" type="Convolution" version="opset1">
			<data strides="1, 1" dilations="1, 1" pads_begin="0, 0" pads_end="0, 0" auto_pad="explicit"/>
			<rt_info>
				<attribute name="fused_names" version="0" value="Convolution_1752"/>
			</rt_info>
			<input>
				<port id="0" precision="FP32">
					<dim>1</dim>
					<dim>144</dim>
					<dim>1</dim>
					<dim>1</dim>
				</port>
				<port id="1" precision="FP32">
					<dim>6</dim>
					<dim>144</dim>
					<dim>1</dim>
					<dim>1</dim>
				</port>
			</input>
			<output>
				<port id="2" precision="FP32">
					<dim>1</dim>
					<dim>6</dim>
					<dim>1</dim>
					<dim>1</dim>
				</port>
			</output>
		</layer>
		<layer id="126" name="Reshape_1772" type="Const" version="opset1">
			<data element_type="f32" shape="1, 6, 1, 1" offset="186192" size="24"/>
			<output>
				<port id="0" precision="FP32">
					<dim>1</dim>
					<dim>6</dim>
					<dim>1</dim>
					<dim>1</dim>
				</port>
			</output>
		</layer>
		<layer id="127" name="1310" type="Add" version="opset1">
			<data auto_broadcast="numpy"/>
			<rt_info>
				<attribute name="fused_names" version="0" value="1310, Concat_1771, Reshape_1772"/>
			</rt_info>
			<input>
				<port id="0" precision="FP32">
					<dim>1</dim>
					<dim>6</dim>
					<dim>1</dim>
					<dim>1</dim>
				</port>
				<port id="1" precision="FP32">
					<dim>1</dim>
					<dim>6</dim>
					<dim>1</dim>
					<dim>1</dim>
				</port>
			</input>
			<output>
				<port id="2" precision="FP32" names="1310">
					<dim>1</dim>
					<dim>6</dim>
					<dim>1</dim>
					<dim>1</dim>
				</port>
			</output>
		</layer>
		<layer id="128" name="1312" type="Swish" version="opset4">
			<rt_info>
				<attribute name="fused_names" version="0" value="1311, 1312"/>
			</rt_info>
			<input>
				<port id="0" precision="FP32">
					<dim>1</dim>
					<dim>6</dim>
					<dim>1</dim>
					<dim>1</dim>
				</port>
			</input>
			<output>
				<port id="1" precision="FP32" names="1312">
					<dim>1</dim>
					<dim>6</dim>
					<dim>1</dim>
					<dim>1</dim>
				</port>
			</output>
		</layer>
		<layer id="129" name="backbone.module.features.stage3.unit1.se.conv2.weight" type="Const" version="opset1">
			<data element_type="f32" shape="144, 6, 1, 1" offset="186216" size="3456"/>
			<rt_info>
				<attribute name="fused_names" version="0" value="backbone.module.features.stage3.unit1.se.conv2.weight"/>
			</rt_info>
			<output>
				<port id="0" precision="FP32" names="backbone.module.features.stage3.unit1.se.conv2.weight">
					<dim>144</dim>
					<dim>6</dim>
					<dim>1</dim>
					<dim>1</dim>
				</port>
			</output>
		</layer>
		<layer id="130" name="Convolution_1802" type="Convolution" version="opset1">
			<data strides="1, 1" dilations="1, 1" pads_begin="0, 0" pads_end="0, 0" auto_pad="explicit"/>
			<rt_info>
				<attribute name="fused_names" version="0" value="Convolution_1802"/>
			</rt_info>
			<input>
				<port id="0" precision="FP32">
					<dim>1</dim>
					<dim>6</dim>
					<dim>1</dim>
					<dim>1</dim>
				</port>
				<port id="1" precision="FP32">
					<dim>144</dim>
					<dim>6</dim>
					<dim>1</dim>
					<dim>1</dim>
				</port>
			</input>
			<output>
				<port id="2" precision="FP32">
					<dim>1</dim>
					<dim>144</dim>
					<dim>1</dim>
					<dim>1</dim>
				</port>
			</output>
		</layer>
		<layer id="131" name="Reshape_1822" type="Const" version="opset1">
			<data element_type="f32" shape="1, 144, 1, 1" offset="189672" size="576"/>
			<output>
				<port id="0" precision="FP32">
					<dim>1</dim>
					<dim>144</dim>
					<dim>1</dim>
					<dim>1</dim>
				</port>
			</output>
		</layer>
		<layer id="132" name="1313" type="Add" version="opset1">
			<data auto_broadcast="numpy"/>
			<rt_info>
				<attribute name="fused_names" version="0" value="1313, Concat_1821, Reshape_1822"/>
			</rt_info>
			<input>
				<port id="0" precision="FP32">
					<dim>1</dim>
					<dim>144</dim>
					<dim>1</dim>
					<dim>1</dim>
				</port>
				<port id="1" precision="FP32">
					<dim>1</dim>
					<dim>144</dim>
					<dim>1</dim>
					<dim>1</dim>
				</port>
			</input>
			<output>
				<port id="2" precision="FP32" names="1313">
					<dim>1</dim>
					<dim>144</dim>
					<dim>1</dim>
					<dim>1</dim>
				</port>
			</output>
		</layer>
		<layer id="133" name="1314" type="Sigmoid" version="opset1">
			<rt_info>
				<attribute name="fused_names" version="0" value="1314"/>
			</rt_info>
			<input>
				<port id="0" precision="FP32">
					<dim>1</dim>
					<dim>144</dim>
					<dim>1</dim>
					<dim>1</dim>
				</port>
			</input>
			<output>
				<port id="1" precision="FP32" names="1314">
					<dim>1</dim>
					<dim>144</dim>
					<dim>1</dim>
					<dim>1</dim>
				</port>
			</output>
		</layer>
		<layer id="134" name="1315" type="Multiply" version="opset1">
			<data auto_broadcast="numpy"/>
			<rt_info>
				<attribute name="fused_names" version="0" value="1315"/>
			</rt_info>
			<input>
				<port id="0" precision="FP32">
					<dim>1</dim>
					<dim>144</dim>
					<dim>36</dim>
					<dim>36</dim>
				</port>
				<port id="1" precision="FP32">
					<dim>1</dim>
					<dim>144</dim>
					<dim>1</dim>
					<dim>1</dim>
				</port>
			</input>
			<output>
				<port id="2" precision="FP32" names="1315">
					<dim>1</dim>
					<dim>144</dim>
					<dim>36</dim>
					<dim>36</dim>
				</port>
			</output>
		</layer>
		<layer id="135" name="Multiply_63147" type="Const" version="opset1">
			<data element_type="f32" shape="32, 144, 1, 1" offset="190248" size="18432"/>
			<output>
				<port id="0" precision="FP32">
					<dim>32</dim>
					<dim>144</dim>
					<dim>1</dim>
					<dim>1</dim>
				</port>
			</output>
		</layer>
		<layer id="136" name="Multiply_61825" type="Convolution" version="opset1">
			<data strides="1, 1" dilations="1, 1" pads_begin="0, 0" pads_end="0, 0" auto_pad="explicit"/>
			<rt_info>
				<attribute name="fused_names" version="0" value="1316, 1317, backbone.module.features.stage3.unit1.conv3.bn.bias, backbone.module.features.stage3.unit1.conv3.bn.running_mean, backbone.module.features.stage3.unit1.conv3.bn.running_var, backbone.module.features.stage3.unit1.conv3.bn.weight"/>
			</rt_info>
			<input>
				<port id="0" precision="FP32">
					<dim>1</dim>
					<dim>144</dim>
					<dim>36</dim>
					<dim>36</dim>
				</port>
				<port id="1" precision="FP32">
					<dim>32</dim>
					<dim>144</dim>
					<dim>1</dim>
					<dim>1</dim>
				</port>
			</input>
			<output>
				<port id="2" precision="FP32">
					<dim>1</dim>
					<dim>32</dim>
					<dim>36</dim>
					<dim>36</dim>
				</port>
			</output>
		</layer>
		<layer id="137" name="Constant_61830" type="Const" version="opset1">
			<data element_type="f32" shape="1, 32, 1, 1" offset="208680" size="128"/>
			<output>
				<port id="0" precision="FP32">
					<dim>1</dim>
					<dim>32</dim>
					<dim>1</dim>
					<dim>1</dim>
				</port>
			</output>
		</layer>
		<layer id="138" name="1317" type="Add" version="opset1">
			<data auto_broadcast="numpy"/>
			<rt_info>
				<attribute name="fused_names" version="0" value="1317, backbone.module.features.stage3.unit1.conv3.bn.bias, backbone.module.features.stage3.unit1.conv3.bn.running_mean, backbone.module.features.stage3.unit1.conv3.bn.running_var, backbone.module.features.stage3.unit1.conv3.bn.weight"/>
			</rt_info>
			<input>
				<port id="0" precision="FP32">
					<dim>1</dim>
					<dim>32</dim>
					<dim>36</dim>
					<dim>36</dim>
				</port>
				<port id="1" precision="FP32">
					<dim>1</dim>
					<dim>32</dim>
					<dim>1</dim>
					<dim>1</dim>
				</port>
			</input>
			<output>
				<port id="2" precision="FP32" names="1317">
					<dim>1</dim>
					<dim>32</dim>
					<dim>36</dim>
					<dim>36</dim>
				</port>
			</output>
		</layer>
		<layer id="139" name="Multiply_63156" type="Const" version="opset1">
			<data element_type="f32" shape="192, 32, 1, 1" offset="208808" size="24576"/>
			<output>
				<port id="0" precision="FP32">
					<dim>192</dim>
					<dim>32</dim>
					<dim>1</dim>
					<dim>1</dim>
				</port>
			</output>
		</layer>
		<layer id="140" name="Multiply_61832" type="Convolution" version="opset1">
			<data strides="1, 1" dilations="1, 1" pads_begin="0, 0" pads_end="0, 0" auto_pad="explicit"/>
			<rt_info>
				<attribute name="fused_names" version="0" value="1318, 1319, backbone.module.features.stage3.unit2.conv1.bn.bias, backbone.module.features.stage3.unit2.conv1.bn.running_mean, backbone.module.features.stage3.unit2.conv1.bn.running_var, backbone.module.features.stage3.unit2.conv1.bn.weight"/>
			</rt_info>
			<input>
				<port id="0" precision="FP32">
					<dim>1</dim>
					<dim>32</dim>
					<dim>36</dim>
					<dim>36</dim>
				</port>
				<port id="1" precision="FP32">
					<dim>192</dim>
					<dim>32</dim>
					<dim>1</dim>
					<dim>1</dim>
				</port>
			</input>
			<output>
				<port id="2" precision="FP32">
					<dim>1</dim>
					<dim>192</dim>
					<dim>36</dim>
					<dim>36</dim>
				</port>
			</output>
		</layer>
		<layer id="141" name="Constant_61837" type="Const" version="opset1">
			<data element_type="f32" shape="1, 192, 1, 1" offset="233384" size="768"/>
			<output>
				<port id="0" precision="FP32">
					<dim>1</dim>
					<dim>192</dim>
					<dim>1</dim>
					<dim>1</dim>
				</port>
			</output>
		</layer>
		<layer id="142" name="1319" type="Add" version="opset1">
			<data auto_broadcast="numpy"/>
			<rt_info>
				<attribute name="fused_names" version="0" value="1319, backbone.module.features.stage3.unit2.conv1.bn.bias, backbone.module.features.stage3.unit2.conv1.bn.running_mean, backbone.module.features.stage3.unit2.conv1.bn.running_var, backbone.module.features.stage3.unit2.conv1.bn.weight"/>
			</rt_info>
			<input>
				<port id="0" precision="FP32">
					<dim>1</dim>
					<dim>192</dim>
					<dim>36</dim>
					<dim>36</dim>
				</port>
				<port id="1" precision="FP32">
					<dim>1</dim>
					<dim>192</dim>
					<dim>1</dim>
					<dim>1</dim>
				</port>
			</input>
			<output>
				<port id="2" precision="FP32" names="1319">
					<dim>1</dim>
					<dim>192</dim>
					<dim>36</dim>
					<dim>36</dim>
				</port>
			</output>
		</layer>
		<layer id="143" name="1321" type="Swish" version="opset4">
			<rt_info>
				<attribute name="fused_names" version="0" value="1320, 1321"/>
			</rt_info>
			<input>
				<port id="0" precision="FP32">
					<dim>1</dim>
					<dim>192</dim>
					<dim>36</dim>
					<dim>36</dim>
				</port>
			</input>
			<output>
				<port id="1" precision="FP32" names="1321">
					<dim>1</dim>
					<dim>192</dim>
					<dim>36</dim>
					<dim>36</dim>
				</port>
			</output>
		</layer>
		<layer id="144" name="Multiply_63165" type="Const" version="opset1">
			<data element_type="f32" shape="192, 1, 1, 5, 5" offset="234152" size="19200"/>
			<output>
				<port id="0" precision="FP32">
					<dim>192</dim>
					<dim>1</dim>
					<dim>1</dim>
					<dim>5</dim>
					<dim>5</dim>
				</port>
			</output>
		</layer>
		<layer id="145" name="Multiply_61839" type="GroupConvolution" version="opset1">
			<data strides="1, 1" pads_begin="2, 2" pads_end="2, 2" dilations="1, 1" auto_pad="explicit"/>
			<rt_info>
				<attribute name="fused_names" version="0" value="1323, backbone.module.features.stage3.unit2.conv2.bn.bias, backbone.module.features.stage3.unit2.conv2.bn.running_mean, backbone.module.features.stage3.unit2.conv2.bn.running_var, backbone.module.features.stage3.unit2.conv2.bn.weight"/>
			</rt_info>
			<input>
				<port id="0" precision="FP32">
					<dim>1</dim>
					<dim>192</dim>
					<dim>36</dim>
					<dim>36</dim>
				</port>
				<port id="1" precision="FP32">
					<dim>192</dim>
					<dim>1</dim>
					<dim>1</dim>
					<dim>5</dim>
					<dim>5</dim>
				</port>
			</input>
			<output>
				<port id="2" precision="FP32" names="1322">
					<dim>1</dim>
					<dim>192</dim>
					<dim>36</dim>
					<dim>36</dim>
				</port>
			</output>
		</layer>
		<layer id="146" name="Constant_61844" type="Const" version="opset1">
			<data element_type="f32" shape="1, 192, 1, 1" offset="253352" size="768"/>
			<output>
				<port id="0" precision="FP32">
					<dim>1</dim>
					<dim>192</dim>
					<dim>1</dim>
					<dim>1</dim>
				</port>
			</output>
		</layer>
		<layer id="147" name="1323" type="Add" version="opset1">
			<data auto_broadcast="numpy"/>
			<rt_info>
				<attribute name="fused_names" version="0" value="1323, backbone.module.features.stage3.unit2.conv2.bn.bias, backbone.module.features.stage3.unit2.conv2.bn.running_mean, backbone.module.features.stage3.unit2.conv2.bn.running_var, backbone.module.features.stage3.unit2.conv2.bn.weight"/>
			</rt_info>
			<input>
				<port id="0" precision="FP32">
					<dim>1</dim>
					<dim>192</dim>
					<dim>36</dim>
					<dim>36</dim>
				</port>
				<port id="1" precision="FP32">
					<dim>1</dim>
					<dim>192</dim>
					<dim>1</dim>
					<dim>1</dim>
				</port>
			</input>
			<output>
				<port id="2" precision="FP32" names="1323">
					<dim>1</dim>
					<dim>192</dim>
					<dim>36</dim>
					<dim>36</dim>
				</port>
			</output>
		</layer>
		<layer id="148" name="1325" type="Swish" version="opset4">
			<rt_info>
				<attribute name="fused_names" version="0" value="1324, 1325"/>
			</rt_info>
			<input>
				<port id="0" precision="FP32">
					<dim>1</dim>
					<dim>192</dim>
					<dim>36</dim>
					<dim>36</dim>
				</port>
			</input>
			<output>
				<port id="1" precision="FP32" names="1325">
					<dim>1</dim>
					<dim>192</dim>
					<dim>36</dim>
					<dim>36</dim>
				</port>
			</output>
		</layer>
		<layer id="149" name="Range_1945" type="Const" version="opset1">
			<data element_type="i64" shape="2" offset="3660" size="16"/>
			<output>
				<port id="0" precision="I64">
					<dim>2</dim>
				</port>
			</output>
		</layer>
		<layer id="150" name="1326" type="ReduceMean" version="opset1">
			<data keep_dims="true"/>
			<rt_info>
				<attribute name="fused_names" version="0" value="1326, Range_1945"/>
			</rt_info>
			<input>
				<port id="0" precision="FP32">
					<dim>1</dim>
					<dim>192</dim>
					<dim>36</dim>
					<dim>36</dim>
				</port>
				<port id="1" precision="I64">
					<dim>2</dim>
				</port>
			</input>
			<output>
				<port id="2" precision="FP32" names="1326">
					<dim>1</dim>
					<dim>192</dim>
					<dim>1</dim>
					<dim>1</dim>
				</port>
			</output>
		</layer>
		<layer id="151" name="backbone.module.features.stage3.unit2.se.conv1.weight" type="Const" version="opset1">
			<data element_type="f32" shape="8, 192, 1, 1" offset="254120" size="6144"/>
			<rt_info>
				<attribute name="fused_names" version="0" value="backbone.module.features.stage3.unit2.se.conv1.weight"/>
			</rt_info>
			<output>
				<port id="0" precision="FP32" names="backbone.module.features.stage3.unit2.se.conv1.weight">
					<dim>8</dim>
					<dim>192</dim>
					<dim>1</dim>
					<dim>1</dim>
				</port>
			</output>
		</layer>
		<layer id="152" name="Convolution_1970" type="Convolution" version="opset1">
			<data strides="1, 1" dilations="1, 1" pads_begin="0, 0" pads_end="0, 0" auto_pad="explicit"/>
			<rt_info>
				<attribute name="fused_names" version="0" value="Convolution_1970"/>
			</rt_info>
			<input>
				<port id="0" precision="FP32">
					<dim>1</dim>
					<dim>192</dim>
					<dim>1</dim>
					<dim>1</dim>
				</port>
				<port id="1" precision="FP32">
					<dim>8</dim>
					<dim>192</dim>
					<dim>1</dim>
					<dim>1</dim>
				</port>
			</input>
			<output>
				<port id="2" precision="FP32">
					<dim>1</dim>
					<dim>8</dim>
					<dim>1</dim>
					<dim>1</dim>
				</port>
			</output>
		</layer>
		<layer id="153" name="Reshape_1990" type="Const" version="opset1">
			<data element_type="f32" shape="1, 8, 1, 1" offset="260264" size="32"/>
			<output>
				<port id="0" precision="FP32">
					<dim>1</dim>
					<dim>8</dim>
					<dim>1</dim>
					<dim>1</dim>
				</port>
			</output>
		</layer>
		<layer id="154" name="1327" type="Add" version="opset1">
			<data auto_broadcast="numpy"/>
			<rt_info>
				<attribute name="fused_names" version="0" value="1327, Concat_1989, Reshape_1990"/>
			</rt_info>
			<input>
				<port id="0" precision="FP32">
					<dim>1</dim>
					<dim>8</dim>
					<dim>1</dim>
					<dim>1</dim>
				</port>
				<port id="1" precision="FP32">
					<dim>1</dim>
					<dim>8</dim>
					<dim>1</dim>
					<dim>1</dim>
				</port>
			</input>
			<output>
				<port id="2" precision="FP32" names="1327">
					<dim>1</dim>
					<dim>8</dim>
					<dim>1</dim>
					<dim>1</dim>
				</port>
			</output>
		</layer>
		<layer id="155" name="1329" type="Swish" version="opset4">
			<rt_info>
				<attribute name="fused_names" version="0" value="1328, 1329"/>
			</rt_info>
			<input>
				<port id="0" precision="FP32">
					<dim>1</dim>
					<dim>8</dim>
					<dim>1</dim>
					<dim>1</dim>
				</port>
			</input>
			<output>
				<port id="1" precision="FP32" names="1329">
					<dim>1</dim>
					<dim>8</dim>
					<dim>1</dim>
					<dim>1</dim>
				</port>
			</output>
		</layer>
		<layer id="156" name="backbone.module.features.stage3.unit2.se.conv2.weight" type="Const" version="opset1">
			<data element_type="f32" shape="192, 8, 1, 1" offset="260296" size="6144"/>
			<rt_info>
				<attribute name="fused_names" version="0" value="backbone.module.features.stage3.unit2.se.conv2.weight"/>
			</rt_info>
			<output>
				<port id="0" precision="FP32" names="backbone.module.features.stage3.unit2.se.conv2.weight">
					<dim>192</dim>
					<dim>8</dim>
					<dim>1</dim>
					<dim>1</dim>
				</port>
			</output>
		</layer>
		<layer id="157" name="Convolution_2020" type="Convolution" version="opset1">
			<data strides="1, 1" dilations="1, 1" pads_begin="0, 0" pads_end="0, 0" auto_pad="explicit"/>
			<rt_info>
				<attribute name="fused_names" version="0" value="Convolution_2020"/>
			</rt_info>
			<input>
				<port id="0" precision="FP32">
					<dim>1</dim>
					<dim>8</dim>
					<dim>1</dim>
					<dim>1</dim>
				</port>
				<port id="1" precision="FP32">
					<dim>192</dim>
					<dim>8</dim>
					<dim>1</dim>
					<dim>1</dim>
				</port>
			</input>
			<output>
				<port id="2" precision="FP32">
					<dim>1</dim>
					<dim>192</dim>
					<dim>1</dim>
					<dim>1</dim>
				</port>
			</output>
		</layer>
		<layer id="158" name="Reshape_2040" type="Const" version="opset1">
			<data element_type="f32" shape="1, 192, 1, 1" offset="266440" size="768"/>
			<output>
				<port id="0" precision="FP32">
					<dim>1</dim>
					<dim>192</dim>
					<dim>1</dim>
					<dim>1</dim>
				</port>
			</output>
		</layer>
		<layer id="159" name="1330" type="Add" version="opset1">
			<data auto_broadcast="numpy"/>
			<rt_info>
				<attribute name="fused_names" version="0" value="1330, Concat_2039, Reshape_2040"/>
			</rt_info>
			<input>
				<port id="0" precision="FP32">
					<dim>1</dim>
					<dim>192</dim>
					<dim>1</dim>
					<dim>1</dim>
				</port>
				<port id="1" precision="FP32">
					<dim>1</dim>
					<dim>192</dim>
					<dim>1</dim>
					<dim>1</dim>
				</port>
			</input>
			<output>
				<port id="2" precision="FP32" names="1330">
					<dim>1</dim>
					<dim>192</dim>
					<dim>1</dim>
					<dim>1</dim>
				</port>
			</output>
		</layer>
		<layer id="160" name="1331" type="Sigmoid" version="opset1">
			<rt_info>
				<attribute name="fused_names" version="0" value="1331"/>
			</rt_info>
			<input>
				<port id="0" precision="FP32">
					<dim>1</dim>
					<dim>192</dim>
					<dim>1</dim>
					<dim>1</dim>
				</port>
			</input>
			<output>
				<port id="1" precision="FP32" names="1331">
					<dim>1</dim>
					<dim>192</dim>
					<dim>1</dim>
					<dim>1</dim>
				</port>
			</output>
		</layer>
		<layer id="161" name="1332" type="Multiply" version="opset1">
			<data auto_broadcast="numpy"/>
			<rt_info>
				<attribute name="fused_names" version="0" value="1332"/>
			</rt_info>
			<input>
				<port id="0" precision="FP32">
					<dim>1</dim>
					<dim>192</dim>
					<dim>36</dim>
					<dim>36</dim>
				</port>
				<port id="1" precision="FP32">
					<dim>1</dim>
					<dim>192</dim>
					<dim>1</dim>
					<dim>1</dim>
				</port>
			</input>
			<output>
				<port id="2" precision="FP32" names="1332">
					<dim>1</dim>
					<dim>192</dim>
					<dim>36</dim>
					<dim>36</dim>
				</port>
			</output>
		</layer>
		<layer id="162" name="Multiply_63173" type="Const" version="opset1">
			<data element_type="f32" shape="32, 192, 1, 1" offset="267208" size="24576"/>
			<output>
				<port id="0" precision="FP32">
					<dim>32</dim>
					<dim>192</dim>
					<dim>1</dim>
					<dim>1</dim>
				</port>
			</output>
		</layer>
		<layer id="163" name="Multiply_61846" type="Convolution" version="opset1">
			<data strides="1, 1" dilations="1, 1" pads_begin="0, 0" pads_end="0, 0" auto_pad="explicit"/>
			<rt_info>
				<attribute name="fused_names" version="0" value="1333, 1334, backbone.module.features.stage3.unit2.conv3.bn.bias, backbone.module.features.stage3.unit2.conv3.bn.running_mean, backbone.module.features.stage3.unit2.conv3.bn.running_var, backbone.module.features.stage3.unit2.conv3.bn.weight"/>
			</rt_info>
			<input>
				<port id="0" precision="FP32">
					<dim>1</dim>
					<dim>192</dim>
					<dim>36</dim>
					<dim>36</dim>
				</port>
				<port id="1" precision="FP32">
					<dim>32</dim>
					<dim>192</dim>
					<dim>1</dim>
					<dim>1</dim>
				</port>
			</input>
			<output>
				<port id="2" precision="FP32">
					<dim>1</dim>
					<dim>32</dim>
					<dim>36</dim>
					<dim>36</dim>
				</port>
			</output>
		</layer>
		<layer id="164" name="Constant_61851" type="Const" version="opset1">
			<data element_type="f32" shape="1, 32, 1, 1" offset="291784" size="128"/>
			<output>
				<port id="0" precision="FP32">
					<dim>1</dim>
					<dim>32</dim>
					<dim>1</dim>
					<dim>1</dim>
				</port>
			</output>
		</layer>
		<layer id="165" name="1334" type="Add" version="opset1">
			<data auto_broadcast="numpy"/>
			<rt_info>
				<attribute name="fused_names" version="0" value="1334, backbone.module.features.stage3.unit2.conv3.bn.bias, backbone.module.features.stage3.unit2.conv3.bn.running_mean, backbone.module.features.stage3.unit2.conv3.bn.running_var, backbone.module.features.stage3.unit2.conv3.bn.weight"/>
			</rt_info>
			<input>
				<port id="0" precision="FP32">
					<dim>1</dim>
					<dim>32</dim>
					<dim>36</dim>
					<dim>36</dim>
				</port>
				<port id="1" precision="FP32">
					<dim>1</dim>
					<dim>32</dim>
					<dim>1</dim>
					<dim>1</dim>
				</port>
			</input>
			<output>
				<port id="2" precision="FP32" names="1334">
					<dim>1</dim>
					<dim>32</dim>
					<dim>36</dim>
					<dim>36</dim>
				</port>
			</output>
		</layer>
		<layer id="166" name="1335" type="Add" version="opset1">
			<data auto_broadcast="numpy"/>
			<rt_info>
				<attribute name="fused_names" version="0" value="1335"/>
			</rt_info>
			<input>
				<port id="0" precision="FP32">
					<dim>1</dim>
					<dim>32</dim>
					<dim>36</dim>
					<dim>36</dim>
				</port>
				<port id="1" precision="FP32">
					<dim>1</dim>
					<dim>32</dim>
					<dim>36</dim>
					<dim>36</dim>
				</port>
			</input>
			<output>
				<port id="2" precision="FP32" names="1335">
					<dim>1</dim>
					<dim>32</dim>
					<dim>36</dim>
					<dim>36</dim>
				</port>
			</output>
		</layer>
		<layer id="167" name="Multiply_63182" type="Const" version="opset1">
			<data element_type="f32" shape="42, 32, 3, 3" offset="291912" size="48384"/>
			<output>
				<port id="0" precision="FP32">
					<dim>42</dim>
					<dim>32</dim>
					<dim>3</dim>
					<dim>3</dim>
				</port>
			</output>
		</layer>
		<layer id="168" name="Multiply_61853" type="Convolution" version="opset1">
			<data strides="1, 1" dilations="1, 1" pads_begin="1, 1" pads_end="1, 1" auto_pad="explicit"/>
			<rt_info>
				<attribute name="fused_names" version="0" value="1515, 1516, backbone.module.transition.1.1.bias, backbone.module.transition.1.1.running_mean, backbone.module.transition.1.1.running_var, backbone.module.transition.1.1.weight"/>
			</rt_info>
			<input>
				<port id="0" precision="FP32">
					<dim>1</dim>
					<dim>32</dim>
					<dim>36</dim>
					<dim>36</dim>
				</port>
				<port id="1" precision="FP32">
					<dim>42</dim>
					<dim>32</dim>
					<dim>3</dim>
					<dim>3</dim>
				</port>
			</input>
			<output>
				<port id="2" precision="FP32">
					<dim>1</dim>
					<dim>42</dim>
					<dim>36</dim>
					<dim>36</dim>
				</port>
			</output>
		</layer>
		<layer id="169" name="Constant_61858" type="Const" version="opset1">
			<data element_type="f32" shape="1, 42, 1, 1" offset="340296" size="168"/>
			<output>
				<port id="0" precision="FP32">
					<dim>1</dim>
					<dim>42</dim>
					<dim>1</dim>
					<dim>1</dim>
				</port>
			</output>
		</layer>
		<layer id="170" name="1516" type="Add" version="opset1">
			<data auto_broadcast="numpy"/>
			<rt_info>
				<attribute name="fused_names" version="0" value="1516, backbone.module.transition.1.1.bias, backbone.module.transition.1.1.running_mean, backbone.module.transition.1.1.running_var, backbone.module.transition.1.1.weight"/>
			</rt_info>
			<input>
				<port id="0" precision="FP32">
					<dim>1</dim>
					<dim>42</dim>
					<dim>36</dim>
					<dim>36</dim>
				</port>
				<port id="1" precision="FP32">
					<dim>1</dim>
					<dim>42</dim>
					<dim>1</dim>
					<dim>1</dim>
				</port>
			</input>
			<output>
				<port id="2" precision="FP32" names="1516">
					<dim>1</dim>
					<dim>42</dim>
					<dim>36</dim>
					<dim>36</dim>
				</port>
			</output>
		</layer>
		<layer id="171" name="1517" type="ReLU" version="opset1">
			<rt_info>
				<attribute name="fused_names" version="0" value="1517"/>
			</rt_info>
			<input>
				<port id="0" precision="FP32">
					<dim>1</dim>
					<dim>42</dim>
					<dim>36</dim>
					<dim>36</dim>
				</port>
			</input>
			<output>
				<port id="1" precision="FP32" names="1517">
					<dim>1</dim>
					<dim>42</dim>
					<dim>36</dim>
					<dim>36</dim>
				</port>
			</output>
		</layer>
		<layer id="172" name="Multiply_63191" type="Const" version="opset1">
			<data element_type="f32" shape="42, 42, 3, 3" offset="340464" size="63504"/>
			<output>
				<port id="0" precision="FP32">
					<dim>42</dim>
					<dim>42</dim>
					<dim>3</dim>
					<dim>3</dim>
				</port>
			</output>
		</layer>
		<layer id="173" name="Multiply_61860" type="Convolution" version="opset1">
			<data strides="1, 1" dilations="1, 1" pads_begin="1, 1" pads_end="1, 1" auto_pad="explicit"/>
			<rt_info>
				<attribute name="fused_names" version="0" value="1538, 1539, backbone.module.stages.0.0.branches.1.0.bn1.bias, backbone.module.stages.0.0.branches.1.0.bn1.running_mean, backbone.module.stages.0.0.branches.1.0.bn1.running_var, backbone.module.stages.0.0.branches.1.0.bn1.weight"/>
			</rt_info>
			<input>
				<port id="0" precision="FP32">
					<dim>1</dim>
					<dim>42</dim>
					<dim>36</dim>
					<dim>36</dim>
				</port>
				<port id="1" precision="FP32">
					<dim>42</dim>
					<dim>42</dim>
					<dim>3</dim>
					<dim>3</dim>
				</port>
			</input>
			<output>
				<port id="2" precision="FP32">
					<dim>1</dim>
					<dim>42</dim>
					<dim>36</dim>
					<dim>36</dim>
				</port>
			</output>
		</layer>
		<layer id="174" name="Constant_61865" type="Const" version="opset1">
			<data element_type="f32" shape="1, 42, 1, 1" offset="403968" size="168"/>
			<output>
				<port id="0" precision="FP32">
					<dim>1</dim>
					<dim>42</dim>
					<dim>1</dim>
					<dim>1</dim>
				</port>
			</output>
		</layer>
		<layer id="175" name="1539" type="Add" version="opset1">
			<data auto_broadcast="numpy"/>
			<rt_info>
				<attribute name="fused_names" version="0" value="1539, backbone.module.stages.0.0.branches.1.0.bn1.bias, backbone.module.stages.0.0.branches.1.0.bn1.running_mean, backbone.module.stages.0.0.branches.1.0.bn1.running_var, backbone.module.stages.0.0.branches.1.0.bn1.weight"/>
			</rt_info>
			<input>
				<port id="0" precision="FP32">
					<dim>1</dim>
					<dim>42</dim>
					<dim>36</dim>
					<dim>36</dim>
				</port>
				<port id="1" precision="FP32">
					<dim>1</dim>
					<dim>42</dim>
					<dim>1</dim>
					<dim>1</dim>
				</port>
			</input>
			<output>
				<port id="2" precision="FP32" names="1539">
					<dim>1</dim>
					<dim>42</dim>
					<dim>36</dim>
					<dim>36</dim>
				</port>
			</output>
		</layer>
		<layer id="176" name="1540" type="ReLU" version="opset1">
			<rt_info>
				<attribute name="fused_names" version="0" value="1540"/>
			</rt_info>
			<input>
				<port id="0" precision="FP32">
					<dim>1</dim>
					<dim>42</dim>
					<dim>36</dim>
					<dim>36</dim>
				</port>
			</input>
			<output>
				<port id="1" precision="FP32" names="1540">
					<dim>1</dim>
					<dim>42</dim>
					<dim>36</dim>
					<dim>36</dim>
				</port>
			</output>
		</layer>
		<layer id="177" name="Multiply_63200" type="Const" version="opset1">
			<data element_type="f32" shape="42, 42, 3, 3" offset="404136" size="63504"/>
			<output>
				<port id="0" precision="FP32">
					<dim>42</dim>
					<dim>42</dim>
					<dim>3</dim>
					<dim>3</dim>
				</port>
			</output>
		</layer>
		<layer id="178" name="Multiply_61867" type="Convolution" version="opset1">
			<data strides="1, 1" dilations="1, 1" pads_begin="1, 1" pads_end="1, 1" auto_pad="explicit"/>
			<rt_info>
				<attribute name="fused_names" version="0" value="1541, 1542, backbone.module.stages.0.0.branches.1.0.bn2.bias, backbone.module.stages.0.0.branches.1.0.bn2.running_mean, backbone.module.stages.0.0.branches.1.0.bn2.running_var, backbone.module.stages.0.0.branches.1.0.bn2.weight"/>
			</rt_info>
			<input>
				<port id="0" precision="FP32">
					<dim>1</dim>
					<dim>42</dim>
					<dim>36</dim>
					<dim>36</dim>
				</port>
				<port id="1" precision="FP32">
					<dim>42</dim>
					<dim>42</dim>
					<dim>3</dim>
					<dim>3</dim>
				</port>
			</input>
			<output>
				<port id="2" precision="FP32">
					<dim>1</dim>
					<dim>42</dim>
					<dim>36</dim>
					<dim>36</dim>
				</port>
			</output>
		</layer>
		<layer id="179" name="Constant_61872" type="Const" version="opset1">
			<data element_type="f32" shape="1, 42, 1, 1" offset="467640" size="168"/>
			<output>
				<port id="0" precision="FP32">
					<dim>1</dim>
					<dim>42</dim>
					<dim>1</dim>
					<dim>1</dim>
				</port>
			</output>
		</layer>
		<layer id="180" name="1542" type="Add" version="opset1">
			<data auto_broadcast="numpy"/>
			<rt_info>
				<attribute name="fused_names" version="0" value="1542, backbone.module.stages.0.0.branches.1.0.bn2.bias, backbone.module.stages.0.0.branches.1.0.bn2.running_mean, backbone.module.stages.0.0.branches.1.0.bn2.running_var, backbone.module.stages.0.0.branches.1.0.bn2.weight"/>
			</rt_info>
			<input>
				<port id="0" precision="FP32">
					<dim>1</dim>
					<dim>42</dim>
					<dim>36</dim>
					<dim>36</dim>
				</port>
				<port id="1" precision="FP32">
					<dim>1</dim>
					<dim>42</dim>
					<dim>1</dim>
					<dim>1</dim>
				</port>
			</input>
			<output>
				<port id="2" precision="FP32" names="1542">
					<dim>1</dim>
					<dim>42</dim>
					<dim>36</dim>
					<dim>36</dim>
				</port>
			</output>
		</layer>
		<layer id="181" name="1543" type="Add" version="opset1">
			<data auto_broadcast="numpy"/>
			<rt_info>
				<attribute name="fused_names" version="0" value="1543"/>
			</rt_info>
			<input>
				<port id="0" precision="FP32">
					<dim>1</dim>
					<dim>42</dim>
					<dim>36</dim>
					<dim>36</dim>
				</port>
				<port id="1" precision="FP32">
					<dim>1</dim>
					<dim>42</dim>
					<dim>36</dim>
					<dim>36</dim>
				</port>
			</input>
			<output>
				<port id="2" precision="FP32" names="1543">
					<dim>1</dim>
					<dim>42</dim>
					<dim>36</dim>
					<dim>36</dim>
				</port>
			</output>
		</layer>
		<layer id="182" name="1544" type="ReLU" version="opset1">
			<rt_info>
				<attribute name="fused_names" version="0" value="1544"/>
			</rt_info>
			<input>
				<port id="0" precision="FP32">
					<dim>1</dim>
					<dim>42</dim>
					<dim>36</dim>
					<dim>36</dim>
				</port>
			</input>
			<output>
				<port id="1" precision="FP32" names="1544">
					<dim>1</dim>
					<dim>42</dim>
					<dim>36</dim>
					<dim>36</dim>
				</port>
			</output>
		</layer>
		<layer id="183" name="Multiply_63209" type="Const" version="opset1">
			<data element_type="f32" shape="42, 42, 3, 3" offset="467808" size="63504"/>
			<output>
				<port id="0" precision="FP32">
					<dim>42</dim>
					<dim>42</dim>
					<dim>3</dim>
					<dim>3</dim>
				</port>
			</output>
		</layer>
		<layer id="184" name="Multiply_61874" type="Convolution" version="opset1">
			<data strides="1, 1" dilations="1, 1" pads_begin="1, 1" pads_end="1, 1" auto_pad="explicit"/>
			<rt_info>
				<attribute name="fused_names" version="0" value="1545, 1546, backbone.module.stages.0.0.branches.1.1.bn1.bias, backbone.module.stages.0.0.branches.1.1.bn1.running_mean, backbone.module.stages.0.0.branches.1.1.bn1.running_var, backbone.module.stages.0.0.branches.1.1.bn1.weight"/>
			</rt_info>
			<input>
				<port id="0" precision="FP32">
					<dim>1</dim>
					<dim>42</dim>
					<dim>36</dim>
					<dim>36</dim>
				</port>
				<port id="1" precision="FP32">
					<dim>42</dim>
					<dim>42</dim>
					<dim>3</dim>
					<dim>3</dim>
				</port>
			</input>
			<output>
				<port id="2" precision="FP32">
					<dim>1</dim>
					<dim>42</dim>
					<dim>36</dim>
					<dim>36</dim>
				</port>
			</output>
		</layer>
		<layer id="185" name="Constant_61879" type="Const" version="opset1">
			<data element_type="f32" shape="1, 42, 1, 1" offset="531312" size="168"/>
			<output>
				<port id="0" precision="FP32">
					<dim>1</dim>
					<dim>42</dim>
					<dim>1</dim>
					<dim>1</dim>
				</port>
			</output>
		</layer>
		<layer id="186" name="1546" type="Add" version="opset1">
			<data auto_broadcast="numpy"/>
			<rt_info>
				<attribute name="fused_names" version="0" value="1546, backbone.module.stages.0.0.branches.1.1.bn1.bias, backbone.module.stages.0.0.branches.1.1.bn1.running_mean, backbone.module.stages.0.0.branches.1.1.bn1.running_var, backbone.module.stages.0.0.branches.1.1.bn1.weight"/>
			</rt_info>
			<input>
				<port id="0" precision="FP32">
					<dim>1</dim>
					<dim>42</dim>
					<dim>36</dim>
					<dim>36</dim>
				</port>
				<port id="1" precision="FP32">
					<dim>1</dim>
					<dim>42</dim>
					<dim>1</dim>
					<dim>1</dim>
				</port>
			</input>
			<output>
				<port id="2" precision="FP32" names="1546">
					<dim>1</dim>
					<dim>42</dim>
					<dim>36</dim>
					<dim>36</dim>
				</port>
			</output>
		</layer>
		<layer id="187" name="1547" type="ReLU" version="opset1">
			<rt_info>
				<attribute name="fused_names" version="0" value="1547"/>
			</rt_info>
			<input>
				<port id="0" precision="FP32">
					<dim>1</dim>
					<dim>42</dim>
					<dim>36</dim>
					<dim>36</dim>
				</port>
			</input>
			<output>
				<port id="1" precision="FP32" names="1547">
					<dim>1</dim>
					<dim>42</dim>
					<dim>36</dim>
					<dim>36</dim>
				</port>
			</output>
		</layer>
		<layer id="188" name="Multiply_63218" type="Const" version="opset1">
			<data element_type="f32" shape="42, 42, 3, 3" offset="531480" size="63504"/>
			<output>
				<port id="0" precision="FP32">
					<dim>42</dim>
					<dim>42</dim>
					<dim>3</dim>
					<dim>3</dim>
				</port>
			</output>
		</layer>
		<layer id="189" name="Multiply_61881" type="Convolution" version="opset1">
			<data strides="1, 1" dilations="1, 1" pads_begin="1, 1" pads_end="1, 1" auto_pad="explicit"/>
			<rt_info>
				<attribute name="fused_names" version="0" value="1548, 1549, backbone.module.stages.0.0.branches.1.1.bn2.bias, backbone.module.stages.0.0.branches.1.1.bn2.running_mean, backbone.module.stages.0.0.branches.1.1.bn2.running_var, backbone.module.stages.0.0.branches.1.1.bn2.weight"/>
			</rt_info>
			<input>
				<port id="0" precision="FP32">
					<dim>1</dim>
					<dim>42</dim>
					<dim>36</dim>
					<dim>36</dim>
				</port>
				<port id="1" precision="FP32">
					<dim>42</dim>
					<dim>42</dim>
					<dim>3</dim>
					<dim>3</dim>
				</port>
			</input>
			<output>
				<port id="2" precision="FP32">
					<dim>1</dim>
					<dim>42</dim>
					<dim>36</dim>
					<dim>36</dim>
				</port>
			</output>
		</layer>
		<layer id="190" name="Constant_61886" type="Const" version="opset1">
			<data element_type="f32" shape="1, 42, 1, 1" offset="594984" size="168"/>
			<output>
				<port id="0" precision="FP32">
					<dim>1</dim>
					<dim>42</dim>
					<dim>1</dim>
					<dim>1</dim>
				</port>
			</output>
		</layer>
		<layer id="191" name="1549" type="Add" version="opset1">
			<data auto_broadcast="numpy"/>
			<rt_info>
				<attribute name="fused_names" version="0" value="1549, backbone.module.stages.0.0.branches.1.1.bn2.bias, backbone.module.stages.0.0.branches.1.1.bn2.running_mean, backbone.module.stages.0.0.branches.1.1.bn2.running_var, backbone.module.stages.0.0.branches.1.1.bn2.weight"/>
			</rt_info>
			<input>
				<port id="0" precision="FP32">
					<dim>1</dim>
					<dim>42</dim>
					<dim>36</dim>
					<dim>36</dim>
				</port>
				<port id="1" precision="FP32">
					<dim>1</dim>
					<dim>42</dim>
					<dim>1</dim>
					<dim>1</dim>
				</port>
			</input>
			<output>
				<port id="2" precision="FP32" names="1549">
					<dim>1</dim>
					<dim>42</dim>
					<dim>36</dim>
					<dim>36</dim>
				</port>
			</output>
		</layer>
		<layer id="192" name="1550" type="Add" version="opset1">
			<data auto_broadcast="numpy"/>
			<rt_info>
				<attribute name="fused_names" version="0" value="1550"/>
			</rt_info>
			<input>
				<port id="0" precision="FP32">
					<dim>1</dim>
					<dim>42</dim>
					<dim>36</dim>
					<dim>36</dim>
				</port>
				<port id="1" precision="FP32">
					<dim>1</dim>
					<dim>42</dim>
					<dim>36</dim>
					<dim>36</dim>
				</port>
			</input>
			<output>
				<port id="2" precision="FP32" names="1550">
					<dim>1</dim>
					<dim>42</dim>
					<dim>36</dim>
					<dim>36</dim>
				</port>
			</output>
		</layer>
		<layer id="193" name="1551" type="ReLU" version="opset1">
			<rt_info>
				<attribute name="fused_names" version="0" value="1551"/>
			</rt_info>
			<input>
				<port id="0" precision="FP32">
					<dim>1</dim>
					<dim>42</dim>
					<dim>36</dim>
					<dim>36</dim>
				</port>
			</input>
			<output>
				<port id="1" precision="FP32" names="1551">
					<dim>1</dim>
					<dim>42</dim>
					<dim>36</dim>
					<dim>36</dim>
				</port>
			</output>
		</layer>
		<layer id="194" name="Multiply_63227" type="Const" version="opset1">
			<data element_type="f32" shape="21, 42, 1, 1" offset="595152" size="3528"/>
			<output>
				<port id="0" precision="FP32">
					<dim>21</dim>
					<dim>42</dim>
					<dim>1</dim>
					<dim>1</dim>
				</port>
			</output>
		</layer>
		<layer id="195" name="Multiply_61888" type="Convolution" version="opset1">
			<data strides="1, 1" dilations="1, 1" pads_begin="0, 0" pads_end="0, 0" auto_pad="explicit"/>
			<rt_info>
				<attribute name="fused_names" version="0" value="1554, 1555, backbone.module.stages.0.0.fuse_layers.0.1.1.bias, backbone.module.stages.0.0.fuse_layers.0.1.1.running_mean, backbone.module.stages.0.0.fuse_layers.0.1.1.running_var, backbone.module.stages.0.0.fuse_layers.0.1.1.weight"/>
			</rt_info>
			<input>
				<port id="0" precision="FP32">
					<dim>1</dim>
					<dim>42</dim>
					<dim>36</dim>
					<dim>36</dim>
				</port>
				<port id="1" precision="FP32">
					<dim>21</dim>
					<dim>42</dim>
					<dim>1</dim>
					<dim>1</dim>
				</port>
			</input>
			<output>
				<port id="2" precision="FP32">
					<dim>1</dim>
					<dim>21</dim>
					<dim>36</dim>
					<dim>36</dim>
				</port>
			</output>
		</layer>
		<layer id="196" name="Constant_61893" type="Const" version="opset1">
			<data element_type="f32" shape="1, 21, 1, 1" offset="598680" size="84"/>
			<output>
				<port id="0" precision="FP32">
					<dim>1</dim>
					<dim>21</dim>
					<dim>1</dim>
					<dim>1</dim>
				</port>
			</output>
		</layer>
		<layer id="197" name="1555" type="Add" version="opset1">
			<data auto_broadcast="numpy"/>
			<rt_info>
				<attribute name="fused_names" version="0" value="1555, backbone.module.stages.0.0.fuse_layers.0.1.1.bias, backbone.module.stages.0.0.fuse_layers.0.1.1.running_mean, backbone.module.stages.0.0.fuse_layers.0.1.1.running_var, backbone.module.stages.0.0.fuse_layers.0.1.1.weight"/>
			</rt_info>
			<input>
				<port id="0" precision="FP32">
					<dim>1</dim>
					<dim>21</dim>
					<dim>36</dim>
					<dim>36</dim>
				</port>
				<port id="1" precision="FP32">
					<dim>1</dim>
					<dim>21</dim>
					<dim>1</dim>
					<dim>1</dim>
				</port>
			</input>
			<output>
				<port id="2" precision="FP32" names="1555">
					<dim>1</dim>
					<dim>21</dim>
					<dim>36</dim>
					<dim>36</dim>
				</port>
			</output>
		</layer>
		<layer id="198" name="1576" type="ShapeOf" version="opset3">
			<data output_type="i64"/>
			<rt_info>
				<attribute name="fused_names" version="0" value="1556, 1564, 1576, ShapeOf_4369"/>
			</rt_info>
			<input>
				<port id="0" precision="FP32">
					<dim>1</dim>
					<dim>21</dim>
					<dim>36</dim>
					<dim>36</dim>
				</port>
			</input>
			<output>
				<port id="1" precision="I64" names="1556,1564,1576">
					<dim>4</dim>
				</port>
			</output>
		</layer>
		<layer id="199" name="1578" type="Const" version="opset1">
			<data element_type="i64" shape="1" offset="598764" size="8"/>
			<rt_info>
				<attribute name="fused_names" version="0" value="1577, 1578, 1579, 1580, Broadcast_4348"/>
			</rt_info>
			<output>
				<port id="0" precision="I64" names="1578">
					<dim>1</dim>
				</port>
			</output>
		</layer>
		<layer id="200" name="1579" type="Const" version="opset1">
			<data element_type="i64" shape="1" offset="598772" size="8"/>
			<rt_info>
				<attribute name="fused_names" version="0" value="1577, 1578, 1579, 1580, Broadcast_4348"/>
			</rt_info>
			<output>
				<port id="0" precision="I64" names="1579">
					<dim>1</dim>
				</port>
			</output>
		</layer>
		<layer id="201" name="Broadcast_4348" type="Const" version="opset1">
			<data element_type="i64" shape="1" offset="598780" size="8"/>
			<rt_info>
				<attribute name="fused_names" version="0" value="1577, 1578, 1579, 1580, Broadcast_4348"/>
			</rt_info>
			<output>
				<port id="0" precision="I64">
					<dim>1</dim>
				</port>
			</output>
		</layer>
		<layer id="202" name="1580" type="StridedSlice" version="opset1">
			<data begin_mask="0" end_mask="0" new_axis_mask="" shrink_axis_mask="" ellipsis_mask=""/>
			<rt_info>
				<attribute name="fused_names" version="0" value="1577, 1578, 1579, 1580, Broadcast_4348"/>
			</rt_info>
			<input>
				<port id="0" precision="I64">
					<dim>4</dim>
				</port>
				<port id="1" precision="I64">
					<dim>1</dim>
				</port>
				<port id="2" precision="I64">
					<dim>1</dim>
				</port>
				<port id="3" precision="I64">
					<dim>1</dim>
				</port>
			</input>
			<output>
				<port id="4" precision="I64" names="1580">
					<dim>2</dim>
				</port>
			</output>
		</layer>
		<layer id="203" name="1557" type="Const" version="opset1">
			<data element_type="i64" shape="" offset="598772" size="8"/>
			<rt_info>
				<attribute name="fused_names" version="0" value="1557"/>
			</rt_info>
			<output>
				<port id="0" precision="I64" names="1557"/>
			</output>
		</layer>
		<layer id="204" name="Constant_4319" type="Const" version="opset1">
			<data element_type="i64" shape="" offset="598764" size="8"/>
			<rt_info>
				<attribute name="fused_names" version="0" value="Constant_4319"/>
			</rt_info>
			<output>
				<port id="0" precision="I64"/>
			</output>
		</layer>
		<layer id="205" name="1558" type="Gather" version="opset8">
			<data batch_dims="0"/>
			<rt_info>
				<attribute name="fused_names" version="0" value="1557, 1558, Constant_4319"/>
			</rt_info>
			<input>
				<port id="0" precision="I64">
					<dim>4</dim>
				</port>
				<port id="1" precision="I64"/>
				<port id="2" precision="I64"/>
			</input>
			<output>
				<port id="3" precision="I64" names="1558"/>
			</output>
		</layer>
		<layer id="206" name="1559" type="Convert" version="opset1">
			<data destination_type="f32"/>
			<rt_info>
				<attribute name="fused_names" version="0" value="1559"/>
			</rt_info>
			<input>
				<port id="0" precision="I64"/>
			</input>
			<output>
				<port id="1" precision="FP32" names="1559"/>
			</output>
		</layer>
		<layer id="207" name="1560" type="Const" version="opset1">
			<data element_type="f32" shape="" offset="598788" size="4"/>
			<rt_info>
				<attribute name="fused_names" version="0" value="1560"/>
			</rt_info>
			<output>
				<port id="0" precision="FP32" names="1560"/>
			</output>
		</layer>
		<layer id="208" name="1561" type="Multiply" version="opset1">
			<data auto_broadcast="numpy"/>
			<rt_info>
				<attribute name="fused_names" version="0" value="1560, 1561, 1562"/>
			</rt_info>
			<input>
				<port id="0" precision="FP32"/>
				<port id="1" precision="FP32"/>
			</input>
			<output>
				<port id="2" precision="FP32" names="1561,1562"/>
			</output>
		</layer>
		<layer id="209" name="1563" type="Floor" version="opset1">
			<rt_info>
				<attribute name="fused_names" version="0" value="1563"/>
			</rt_info>
			<input>
				<port id="0" precision="FP32"/>
			</input>
			<output>
				<port id="1" precision="FP32" names="1563"/>
			</output>
		</layer>
		<layer id="210" name="Constant_4335" type="Const" version="opset1">
			<data element_type="i64" shape="1" offset="598764" size="8"/>
			<rt_info>
				<attribute name="fused_names" version="0" value="Constant_4335"/>
			</rt_info>
			<output>
				<port id="0" precision="I64">
					<dim>1</dim>
				</port>
			</output>
		</layer>
		<layer id="211" name="1572" type="Unsqueeze" version="opset1">
			<rt_info>
				<attribute name="fused_names" version="0" value="1572, Constant_4335"/>
			</rt_info>
			<input>
				<port id="0" precision="FP32"/>
				<port id="1" precision="I64">
					<dim>1</dim>
				</port>
			</input>
			<output>
				<port id="2" precision="FP32" names="1572">
					<dim>1</dim>
				</port>
			</output>
		</layer>
		<layer id="212" name="1565" type="Const" version="opset1">
			<data element_type="i64" shape="" offset="598792" size="8"/>
			<rt_info>
				<attribute name="fused_names" version="0" value="1565"/>
			</rt_info>
			<output>
				<port id="0" precision="I64" names="1565"/>
			</output>
		</layer>
		<layer id="213" name="Constant_4328" type="Const" version="opset1">
			<data element_type="i64" shape="" offset="598764" size="8"/>
			<rt_info>
				<attribute name="fused_names" version="0" value="Constant_4328"/>
			</rt_info>
			<output>
				<port id="0" precision="I64"/>
			</output>
		</layer>
		<layer id="214" name="1566" type="Gather" version="opset8">
			<data batch_dims="0"/>
			<rt_info>
				<attribute name="fused_names" version="0" value="1565, 1566, Constant_4328"/>
			</rt_info>
			<input>
				<port id="0" precision="I64">
					<dim>4</dim>
				</port>
				<port id="1" precision="I64"/>
				<port id="2" precision="I64"/>
			</input>
			<output>
				<port id="3" precision="I64" names="1566"/>
			</output>
		</layer>
		<layer id="215" name="1567" type="Convert" version="opset1">
			<data destination_type="f32"/>
			<rt_info>
				<attribute name="fused_names" version="0" value="1567"/>
			</rt_info>
			<input>
				<port id="0" precision="I64"/>
			</input>
			<output>
				<port id="1" precision="FP32" names="1567"/>
			</output>
		</layer>
		<layer id="216" name="1568" type="Const" version="opset1">
			<data element_type="f32" shape="" offset="598788" size="4"/>
			<rt_info>
				<attribute name="fused_names" version="0" value="1568"/>
			</rt_info>
			<output>
				<port id="0" precision="FP32" names="1568"/>
			</output>
		</layer>
		<layer id="217" name="1569" type="Multiply" version="opset1">
			<data auto_broadcast="numpy"/>
			<rt_info>
				<attribute name="fused_names" version="0" value="1568, 1569, 1570"/>
			</rt_info>
			<input>
				<port id="0" precision="FP32"/>
				<port id="1" precision="FP32"/>
			</input>
			<output>
				<port id="2" precision="FP32" names="1569,1570"/>
			</output>
		</layer>
		<layer id="218" name="1571" type="Floor" version="opset1">
			<rt_info>
				<attribute name="fused_names" version="0" value="1571"/>
			</rt_info>
			<input>
				<port id="0" precision="FP32"/>
			</input>
			<output>
				<port id="1" precision="FP32" names="1571"/>
			</output>
		</layer>
		<layer id="219" name="Constant_4337" type="Const" version="opset1">
			<data element_type="i64" shape="1" offset="598764" size="8"/>
			<rt_info>
				<attribute name="fused_names" version="0" value="Constant_4337"/>
			</rt_info>
			<output>
				<port id="0" precision="I64">
					<dim>1</dim>
				</port>
			</output>
		</layer>
		<layer id="220" name="1573" type="Unsqueeze" version="opset1">
			<rt_info>
				<attribute name="fused_names" version="0" value="1573, Constant_4337"/>
			</rt_info>
			<input>
				<port id="0" precision="FP32"/>
				<port id="1" precision="I64">
					<dim>1</dim>
				</port>
			</input>
			<output>
				<port id="2" precision="FP32" names="1573">
					<dim>1</dim>
				</port>
			</output>
		</layer>
		<layer id="221" name="1574" type="Concat" version="opset1">
			<data axis="0"/>
			<rt_info>
				<attribute name="fused_names" version="0" value="1574"/>
			</rt_info>
			<input>
				<port id="0" precision="FP32">
					<dim>1</dim>
				</port>
				<port id="1" precision="FP32">
					<dim>1</dim>
				</port>
			</input>
			<output>
				<port id="2" precision="FP32" names="1574">
					<dim>2</dim>
				</port>
			</output>
		</layer>
		<layer id="222" name="1581" type="Convert" version="opset1">
			<data destination_type="i64"/>
			<rt_info>
				<attribute name="fused_names" version="0" value="1581"/>
			</rt_info>
			<input>
				<port id="0" precision="FP32">
					<dim>2</dim>
				</port>
			</input>
			<output>
				<port id="1" precision="I64" names="1581">
					<dim>2</dim>
				</port>
			</output>
		</layer>
		<layer id="223" name="1582" type="Concat" version="opset1">
			<data axis="0"/>
			<rt_info>
				<attribute name="fused_names" version="0" value="1582"/>
			</rt_info>
			<input>
				<port id="0" precision="I64">
					<dim>2</dim>
				</port>
				<port id="1" precision="I64">
					<dim>2</dim>
				</port>
			</input>
			<output>
				<port id="2" precision="I64" names="1582">
					<dim>4</dim>
				</port>
			</output>
		</layer>
		<layer id="224" name="Convert_4371" type="Convert" version="opset1">
			<data destination_type="f32"/>
			<rt_info>
				<attribute name="fused_names" version="0" value="Convert_4371"/>
			</rt_info>
			<input>
				<port id="0" precision="I64">
					<dim>4</dim>
				</port>
			</input>
			<output>
				<port id="1" precision="FP32">
					<dim>4</dim>
				</port>
			</output>
		</layer>
		<layer id="225" name="Convert_4370" type="Convert" version="opset1">
			<data destination_type="f32"/>
			<rt_info>
				<attribute name="fused_names" version="0" value="Convert_4370"/>
			</rt_info>
			<input>
				<port id="0" precision="I64">
					<dim>4</dim>
				</port>
			</input>
			<output>
				<port id="1" precision="FP32">
					<dim>4</dim>
				</port>
			</output>
		</layer>
		<layer id="226" name="Divide_4372" type="Divide" version="opset1">
			<data auto_broadcast="numpy" m_pythondiv="true"/>
			<rt_info>
				<attribute name="fused_names" version="0" value="Divide_4372"/>
			</rt_info>
			<input>
				<port id="0" precision="FP32">
					<dim>4</dim>
				</port>
				<port id="1" precision="FP32">
					<dim>4</dim>
				</port>
			</input>
			<output>
				<port id="2" precision="FP32">
					<dim>4</dim>
				</port>
			</output>
		</layer>
		<layer id="227" name="Constant_69929" type="Const" version="opset1">
			<data element_type="f32" shape="1" offset="598800" size="4"/>
			<output>
				<port id="0" precision="FP32">
					<dim>1</dim>
				</port>
			</output>
		</layer>
		<layer id="228" name="Add_4374" type="Add" version="opset1">
			<data auto_broadcast="numpy"/>
			<rt_info>
				<attribute name="fused_names" version="0" value="Add_4374"/>
			</rt_info>
			<input>
				<port id="0" precision="FP32">
					<dim>4</dim>
				</port>
				<port id="1" precision="FP32">
					<dim>1</dim>
				</port>
			</input>
			<output>
				<port id="2" precision="FP32">
					<dim>4</dim>
				</port>
			</output>
		</layer>
		<layer id="229" name="1584" type="Interpolate" version="opset4">
			<data mode="nearest" shape_calculation_mode="sizes" coordinate_transformation_mode="asymmetric" nearest_mode="floor" antialias="false" pads_begin="0, 0, 0, 0" pads_end="0, 0, 0, 0" cube_coeff="-0.75"/>
			<rt_info>
				<attribute name="fused_names" version="0" value="1584"/>
			</rt_info>
			<input>
				<port id="0" precision="FP32">
					<dim>1</dim>
					<dim>21</dim>
					<dim>36</dim>
					<dim>36</dim>
				</port>
				<port id="1" precision="I64">
					<dim>4</dim>
				</port>
				<port id="2" precision="FP32">
					<dim>4</dim>
				</port>
			</input>
			<output>
				<port id="3" precision="FP32" names="1584">
					<dim>1</dim>
					<dim>21</dim>
					<dim>72</dim>
					<dim>72</dim>
				</port>
			</output>
		</layer>
		<layer id="230" name="1585" type="Add" version="opset1">
			<data auto_broadcast="numpy"/>
			<rt_info>
				<attribute name="fused_names" version="0" value="1585"/>
			</rt_info>
			<input>
				<port id="0" precision="FP32">
					<dim>1</dim>
					<dim>21</dim>
					<dim>72</dim>
					<dim>72</dim>
				</port>
				<port id="1" precision="FP32">
					<dim>1</dim>
					<dim>21</dim>
					<dim>72</dim>
					<dim>72</dim>
				</port>
			</input>
			<output>
				<port id="2" precision="FP32" names="1585">
					<dim>1</dim>
					<dim>21</dim>
					<dim>72</dim>
					<dim>72</dim>
				</port>
			</output>
		</layer>
		<layer id="231" name="1586" type="ReLU" version="opset1">
			<rt_info>
				<attribute name="fused_names" version="0" value="1586"/>
			</rt_info>
			<input>
				<port id="0" precision="FP32">
					<dim>1</dim>
					<dim>21</dim>
					<dim>72</dim>
					<dim>72</dim>
				</port>
			</input>
			<output>
				<port id="1" precision="FP32" names="1586">
					<dim>1</dim>
					<dim>21</dim>
					<dim>72</dim>
					<dim>72</dim>
				</port>
			</output>
		</layer>
		<layer id="232" name="Multiply_63236" type="Const" version="opset1">
			<data element_type="f32" shape="21, 21, 3, 3" offset="598804" size="15876"/>
			<output>
				<port id="0" precision="FP32">
					<dim>21</dim>
					<dim>21</dim>
					<dim>3</dim>
					<dim>3</dim>
				</port>
			</output>
		</layer>
		<layer id="233" name="Multiply_61895" type="Convolution" version="opset1">
			<data strides="1, 1" dilations="1, 1" pads_begin="1, 1" pads_end="1, 1" auto_pad="explicit"/>
			<rt_info>
				<attribute name="fused_names" version="0" value="1591, 1592, backbone.module.stages.1.0.branches.0.0.bn1.bias, backbone.module.stages.1.0.branches.0.0.bn1.running_mean, backbone.module.stages.1.0.branches.0.0.bn1.running_var, backbone.module.stages.1.0.branches.0.0.bn1.weight"/>
			</rt_info>
			<input>
				<port id="0" precision="FP32">
					<dim>1</dim>
					<dim>21</dim>
					<dim>72</dim>
					<dim>72</dim>
				</port>
				<port id="1" precision="FP32">
					<dim>21</dim>
					<dim>21</dim>
					<dim>3</dim>
					<dim>3</dim>
				</port>
			</input>
			<output>
				<port id="2" precision="FP32">
					<dim>1</dim>
					<dim>21</dim>
					<dim>72</dim>
					<dim>72</dim>
				</port>
			</output>
		</layer>
		<layer id="234" name="Constant_61900" type="Const" version="opset1">
			<data element_type="f32" shape="1, 21, 1, 1" offset="614680" size="84"/>
			<output>
				<port id="0" precision="FP32">
					<dim>1</dim>
					<dim>21</dim>
					<dim>1</dim>
					<dim>1</dim>
				</port>
			</output>
		</layer>
		<layer id="235" name="1592" type="Add" version="opset1">
			<data auto_broadcast="numpy"/>
			<rt_info>
				<attribute name="fused_names" version="0" value="1592, backbone.module.stages.1.0.branches.0.0.bn1.bias, backbone.module.stages.1.0.branches.0.0.bn1.running_mean, backbone.module.stages.1.0.branches.0.0.bn1.running_var, backbone.module.stages.1.0.branches.0.0.bn1.weight"/>
			</rt_info>
			<input>
				<port id="0" precision="FP32">
					<dim>1</dim>
					<dim>21</dim>
					<dim>72</dim>
					<dim>72</dim>
				</port>
				<port id="1" precision="FP32">
					<dim>1</dim>
					<dim>21</dim>
					<dim>1</dim>
					<dim>1</dim>
				</port>
			</input>
			<output>
				<port id="2" precision="FP32" names="1592">
					<dim>1</dim>
					<dim>21</dim>
					<dim>72</dim>
					<dim>72</dim>
				</port>
			</output>
		</layer>
		<layer id="236" name="1593" type="ReLU" version="opset1">
			<rt_info>
				<attribute name="fused_names" version="0" value="1593"/>
			</rt_info>
			<input>
				<port id="0" precision="FP32">
					<dim>1</dim>
					<dim>21</dim>
					<dim>72</dim>
					<dim>72</dim>
				</port>
			</input>
			<output>
				<port id="1" precision="FP32" names="1593">
					<dim>1</dim>
					<dim>21</dim>
					<dim>72</dim>
					<dim>72</dim>
				</port>
			</output>
		</layer>
		<layer id="237" name="Multiply_63245" type="Const" version="opset1">
			<data element_type="f32" shape="21, 21, 3, 3" offset="614764" size="15876"/>
			<output>
				<port id="0" precision="FP32">
					<dim>21</dim>
					<dim>21</dim>
					<dim>3</dim>
					<dim>3</dim>
				</port>
			</output>
		</layer>
		<layer id="238" name="Multiply_61902" type="Convolution" version="opset1">
			<data strides="1, 1" dilations="1, 1" pads_begin="1, 1" pads_end="1, 1" auto_pad="explicit"/>
			<rt_info>
				<attribute name="fused_names" version="0" value="1594, 1595, backbone.module.stages.1.0.branches.0.0.bn2.bias, backbone.module.stages.1.0.branches.0.0.bn2.running_mean, backbone.module.stages.1.0.branches.0.0.bn2.running_var, backbone.module.stages.1.0.branches.0.0.bn2.weight"/>
			</rt_info>
			<input>
				<port id="0" precision="FP32">
					<dim>1</dim>
					<dim>21</dim>
					<dim>72</dim>
					<dim>72</dim>
				</port>
				<port id="1" precision="FP32">
					<dim>21</dim>
					<dim>21</dim>
					<dim>3</dim>
					<dim>3</dim>
				</port>
			</input>
			<output>
				<port id="2" precision="FP32">
					<dim>1</dim>
					<dim>21</dim>
					<dim>72</dim>
					<dim>72</dim>
				</port>
			</output>
		</layer>
		<layer id="239" name="Constant_61907" type="Const" version="opset1">
			<data element_type="f32" shape="1, 21, 1, 1" offset="630640" size="84"/>
			<output>
				<port id="0" precision="FP32">
					<dim>1</dim>
					<dim>21</dim>
					<dim>1</dim>
					<dim>1</dim>
				</port>
			</output>
		</layer>
		<layer id="240" name="1595" type="Add" version="opset1">
			<data auto_broadcast="numpy"/>
			<rt_info>
				<attribute name="fused_names" version="0" value="1595, backbone.module.stages.1.0.branches.0.0.bn2.bias, backbone.module.stages.1.0.branches.0.0.bn2.running_mean, backbone.module.stages.1.0.branches.0.0.bn2.running_var, backbone.module.stages.1.0.branches.0.0.bn2.weight"/>
			</rt_info>
			<input>
				<port id="0" precision="FP32">
					<dim>1</dim>
					<dim>21</dim>
					<dim>72</dim>
					<dim>72</dim>
				</port>
				<port id="1" precision="FP32">
					<dim>1</dim>
					<dim>21</dim>
					<dim>1</dim>
					<dim>1</dim>
				</port>
			</input>
			<output>
				<port id="2" precision="FP32" names="1595">
					<dim>1</dim>
					<dim>21</dim>
					<dim>72</dim>
					<dim>72</dim>
				</port>
			</output>
		</layer>
		<layer id="241" name="1596" type="Add" version="opset1">
			<data auto_broadcast="numpy"/>
			<rt_info>
				<attribute name="fused_names" version="0" value="1596"/>
			</rt_info>
			<input>
				<port id="0" precision="FP32">
					<dim>1</dim>
					<dim>21</dim>
					<dim>72</dim>
					<dim>72</dim>
				</port>
				<port id="1" precision="FP32">
					<dim>1</dim>
					<dim>21</dim>
					<dim>72</dim>
					<dim>72</dim>
				</port>
			</input>
			<output>
				<port id="2" precision="FP32" names="1596">
					<dim>1</dim>
					<dim>21</dim>
					<dim>72</dim>
					<dim>72</dim>
				</port>
			</output>
		</layer>
		<layer id="242" name="1597" type="ReLU" version="opset1">
			<rt_info>
				<attribute name="fused_names" version="0" value="1597"/>
			</rt_info>
			<input>
				<port id="0" precision="FP32">
					<dim>1</dim>
					<dim>21</dim>
					<dim>72</dim>
					<dim>72</dim>
				</port>
			</input>
			<output>
				<port id="1" precision="FP32" names="1597">
					<dim>1</dim>
					<dim>21</dim>
					<dim>72</dim>
					<dim>72</dim>
				</port>
			</output>
		</layer>
		<layer id="243" name="Multiply_63254" type="Const" version="opset1">
			<data element_type="f32" shape="21, 21, 3, 3" offset="630724" size="15876"/>
			<output>
				<port id="0" precision="FP32">
					<dim>21</dim>
					<dim>21</dim>
					<dim>3</dim>
					<dim>3</dim>
				</port>
			</output>
		</layer>
		<layer id="244" name="Multiply_61909" type="Convolution" version="opset1">
			<data strides="1, 1" dilations="1, 1" pads_begin="1, 1" pads_end="1, 1" auto_pad="explicit"/>
			<rt_info>
				<attribute name="fused_names" version="0" value="1598, 1599, backbone.module.stages.1.0.branches.0.1.bn1.bias, backbone.module.stages.1.0.branches.0.1.bn1.running_mean, backbone.module.stages.1.0.branches.0.1.bn1.running_var, backbone.module.stages.1.0.branches.0.1.bn1.weight"/>
			</rt_info>
			<input>
				<port id="0" precision="FP32">
					<dim>1</dim>
					<dim>21</dim>
					<dim>72</dim>
					<dim>72</dim>
				</port>
				<port id="1" precision="FP32">
					<dim>21</dim>
					<dim>21</dim>
					<dim>3</dim>
					<dim>3</dim>
				</port>
			</input>
			<output>
				<port id="2" precision="FP32">
					<dim>1</dim>
					<dim>21</dim>
					<dim>72</dim>
					<dim>72</dim>
				</port>
			</output>
		</layer>
		<layer id="245" name="Constant_61914" type="Const" version="opset1">
			<data element_type="f32" shape="1, 21, 1, 1" offset="646600" size="84"/>
			<output>
				<port id="0" precision="FP32">
					<dim>1</dim>
					<dim>21</dim>
					<dim>1</dim>
					<dim>1</dim>
				</port>
			</output>
		</layer>
		<layer id="246" name="1599" type="Add" version="opset1">
			<data auto_broadcast="numpy"/>
			<rt_info>
				<attribute name="fused_names" version="0" value="1599, backbone.module.stages.1.0.branches.0.1.bn1.bias, backbone.module.stages.1.0.branches.0.1.bn1.running_mean, backbone.module.stages.1.0.branches.0.1.bn1.running_var, backbone.module.stages.1.0.branches.0.1.bn1.weight"/>
			</rt_info>
			<input>
				<port id="0" precision="FP32">
					<dim>1</dim>
					<dim>21</dim>
					<dim>72</dim>
					<dim>72</dim>
				</port>
				<port id="1" precision="FP32">
					<dim>1</dim>
					<dim>21</dim>
					<dim>1</dim>
					<dim>1</dim>
				</port>
			</input>
			<output>
				<port id="2" precision="FP32" names="1599">
					<dim>1</dim>
					<dim>21</dim>
					<dim>72</dim>
					<dim>72</dim>
				</port>
			</output>
		</layer>
		<layer id="247" name="1600" type="ReLU" version="opset1">
			<rt_info>
				<attribute name="fused_names" version="0" value="1600"/>
			</rt_info>
			<input>
				<port id="0" precision="FP32">
					<dim>1</dim>
					<dim>21</dim>
					<dim>72</dim>
					<dim>72</dim>
				</port>
			</input>
			<output>
				<port id="1" precision="FP32" names="1600">
					<dim>1</dim>
					<dim>21</dim>
					<dim>72</dim>
					<dim>72</dim>
				</port>
			</output>
		</layer>
		<layer id="248" name="Multiply_63263" type="Const" version="opset1">
			<data element_type="f32" shape="21, 21, 3, 3" offset="646684" size="15876"/>
			<output>
				<port id="0" precision="FP32">
					<dim>21</dim>
					<dim>21</dim>
					<dim>3</dim>
					<dim>3</dim>
				</port>
			</output>
		</layer>
		<layer id="249" name="Multiply_61916" type="Convolution" version="opset1">
			<data strides="1, 1" dilations="1, 1" pads_begin="1, 1" pads_end="1, 1" auto_pad="explicit"/>
			<rt_info>
				<attribute name="fused_names" version="0" value="1601, 1602, backbone.module.stages.1.0.branches.0.1.bn2.bias, backbone.module.stages.1.0.branches.0.1.bn2.running_mean, backbone.module.stages.1.0.branches.0.1.bn2.running_var, backbone.module.stages.1.0.branches.0.1.bn2.weight"/>
			</rt_info>
			<input>
				<port id="0" precision="FP32">
					<dim>1</dim>
					<dim>21</dim>
					<dim>72</dim>
					<dim>72</dim>
				</port>
				<port id="1" precision="FP32">
					<dim>21</dim>
					<dim>21</dim>
					<dim>3</dim>
					<dim>3</dim>
				</port>
			</input>
			<output>
				<port id="2" precision="FP32">
					<dim>1</dim>
					<dim>21</dim>
					<dim>72</dim>
					<dim>72</dim>
				</port>
			</output>
		</layer>
		<layer id="250" name="Constant_61921" type="Const" version="opset1">
			<data element_type="f32" shape="1, 21, 1, 1" offset="662560" size="84"/>
			<output>
				<port id="0" precision="FP32">
					<dim>1</dim>
					<dim>21</dim>
					<dim>1</dim>
					<dim>1</dim>
				</port>
			</output>
		</layer>
		<layer id="251" name="1602" type="Add" version="opset1">
			<data auto_broadcast="numpy"/>
			<rt_info>
				<attribute name="fused_names" version="0" value="1602, backbone.module.stages.1.0.branches.0.1.bn2.bias, backbone.module.stages.1.0.branches.0.1.bn2.running_mean, backbone.module.stages.1.0.branches.0.1.bn2.running_var, backbone.module.stages.1.0.branches.0.1.bn2.weight"/>
			</rt_info>
			<input>
				<port id="0" precision="FP32">
					<dim>1</dim>
					<dim>21</dim>
					<dim>72</dim>
					<dim>72</dim>
				</port>
				<port id="1" precision="FP32">
					<dim>1</dim>
					<dim>21</dim>
					<dim>1</dim>
					<dim>1</dim>
				</port>
			</input>
			<output>
				<port id="2" precision="FP32" names="1602">
					<dim>1</dim>
					<dim>21</dim>
					<dim>72</dim>
					<dim>72</dim>
				</port>
			</output>
		</layer>
		<layer id="252" name="1603" type="Add" version="opset1">
			<data auto_broadcast="numpy"/>
			<rt_info>
				<attribute name="fused_names" version="0" value="1603"/>
			</rt_info>
			<input>
				<port id="0" precision="FP32">
					<dim>1</dim>
					<dim>21</dim>
					<dim>72</dim>
					<dim>72</dim>
				</port>
				<port id="1" precision="FP32">
					<dim>1</dim>
					<dim>21</dim>
					<dim>72</dim>
					<dim>72</dim>
				</port>
			</input>
			<output>
				<port id="2" precision="FP32" names="1603">
					<dim>1</dim>
					<dim>21</dim>
					<dim>72</dim>
					<dim>72</dim>
				</port>
			</output>
		</layer>
		<layer id="253" name="1604" type="ReLU" version="opset1">
			<rt_info>
				<attribute name="fused_names" version="0" value="1604, 1634"/>
			</rt_info>
			<input>
				<port id="0" precision="FP32">
					<dim>1</dim>
					<dim>21</dim>
					<dim>72</dim>
					<dim>72</dim>
				</port>
			</input>
			<output>
				<port id="1" precision="FP32" names="1604,1634">
					<dim>1</dim>
					<dim>21</dim>
					<dim>72</dim>
					<dim>72</dim>
				</port>
			</output>
		</layer>
		<layer id="254" name="Multiply_63272" type="Const" version="opset1">
			<data element_type="f32" shape="42, 21, 3, 3" offset="662644" size="31752"/>
			<output>
				<port id="0" precision="FP32">
					<dim>42</dim>
					<dim>21</dim>
					<dim>3</dim>
					<dim>3</dim>
				</port>
			</output>
		</layer>
		<layer id="255" name="Multiply_61923" type="Convolution" version="opset1">
			<data strides="2, 2" dilations="1, 1" pads_begin="1, 1" pads_end="1, 1" auto_pad="explicit"/>
			<rt_info>
				<attribute name="fused_names" version="0" value="1587, 1588, backbone.module.stages.0.0.fuse_layers.1.0.0.1.bias, backbone.module.stages.0.0.fuse_layers.1.0.0.1.running_mean, backbone.module.stages.0.0.fuse_layers.1.0.0.1.running_var, backbone.module.stages.0.0.fuse_layers.1.0.0.1.weight"/>
			</rt_info>
			<input>
				<port id="0" precision="FP32">
					<dim>1</dim>
					<dim>21</dim>
					<dim>72</dim>
					<dim>72</dim>
				</port>
				<port id="1" precision="FP32">
					<dim>42</dim>
					<dim>21</dim>
					<dim>3</dim>
					<dim>3</dim>
				</port>
			</input>
			<output>
				<port id="2" precision="FP32">
					<dim>1</dim>
					<dim>42</dim>
					<dim>36</dim>
					<dim>36</dim>
				</port>
			</output>
		</layer>
		<layer id="256" name="Constant_61928" type="Const" version="opset1">
			<data element_type="f32" shape="1, 42, 1, 1" offset="694396" size="168"/>
			<output>
				<port id="0" precision="FP32">
					<dim>1</dim>
					<dim>42</dim>
					<dim>1</dim>
					<dim>1</dim>
				</port>
			</output>
		</layer>
		<layer id="257" name="1588" type="Add" version="opset1">
			<data auto_broadcast="numpy"/>
			<rt_info>
				<attribute name="fused_names" version="0" value="1588, backbone.module.stages.0.0.fuse_layers.1.0.0.1.bias, backbone.module.stages.0.0.fuse_layers.1.0.0.1.running_mean, backbone.module.stages.0.0.fuse_layers.1.0.0.1.running_var, backbone.module.stages.0.0.fuse_layers.1.0.0.1.weight"/>
			</rt_info>
			<input>
				<port id="0" precision="FP32">
					<dim>1</dim>
					<dim>42</dim>
					<dim>36</dim>
					<dim>36</dim>
				</port>
				<port id="1" precision="FP32">
					<dim>1</dim>
					<dim>42</dim>
					<dim>1</dim>
					<dim>1</dim>
				</port>
			</input>
			<output>
				<port id="2" precision="FP32" names="1588">
					<dim>1</dim>
					<dim>42</dim>
					<dim>36</dim>
					<dim>36</dim>
				</port>
			</output>
		</layer>
		<layer id="258" name="1589" type="Add" version="opset1">
			<data auto_broadcast="numpy"/>
			<rt_info>
				<attribute name="fused_names" version="0" value="1589"/>
			</rt_info>
			<input>
				<port id="0" precision="FP32">
					<dim>1</dim>
					<dim>42</dim>
					<dim>36</dim>
					<dim>36</dim>
				</port>
				<port id="1" precision="FP32">
					<dim>1</dim>
					<dim>42</dim>
					<dim>36</dim>
					<dim>36</dim>
				</port>
			</input>
			<output>
				<port id="2" precision="FP32" names="1589">
					<dim>1</dim>
					<dim>42</dim>
					<dim>36</dim>
					<dim>36</dim>
				</port>
			</output>
		</layer>
		<layer id="259" name="1590" type="ReLU" version="opset1">
			<rt_info>
				<attribute name="fused_names" version="0" value="1590"/>
			</rt_info>
			<input>
				<port id="0" precision="FP32">
					<dim>1</dim>
					<dim>42</dim>
					<dim>36</dim>
					<dim>36</dim>
				</port>
			</input>
			<output>
				<port id="1" precision="FP32" names="1590">
					<dim>1</dim>
					<dim>42</dim>
					<dim>36</dim>
					<dim>36</dim>
				</port>
			</output>
		</layer>
		<layer id="260" name="Multiply_63281" type="Const" version="opset1">
			<data element_type="f32" shape="42, 42, 3, 3" offset="694564" size="63504"/>
			<output>
				<port id="0" precision="FP32">
					<dim>42</dim>
					<dim>42</dim>
					<dim>3</dim>
					<dim>3</dim>
				</port>
			</output>
		</layer>
		<layer id="261" name="Multiply_61930" type="Convolution" version="opset1">
			<data strides="1, 1" dilations="1, 1" pads_begin="1, 1" pads_end="1, 1" auto_pad="explicit"/>
			<rt_info>
				<attribute name="fused_names" version="0" value="1605, 1606, backbone.module.stages.1.0.branches.1.0.bn1.bias, backbone.module.stages.1.0.branches.1.0.bn1.running_mean, backbone.module.stages.1.0.branches.1.0.bn1.running_var, backbone.module.stages.1.0.branches.1.0.bn1.weight"/>
			</rt_info>
			<input>
				<port id="0" precision="FP32">
					<dim>1</dim>
					<dim>42</dim>
					<dim>36</dim>
					<dim>36</dim>
				</port>
				<port id="1" precision="FP32">
					<dim>42</dim>
					<dim>42</dim>
					<dim>3</dim>
					<dim>3</dim>
				</port>
			</input>
			<output>
				<port id="2" precision="FP32">
					<dim>1</dim>
					<dim>42</dim>
					<dim>36</dim>
					<dim>36</dim>
				</port>
			</output>
		</layer>
		<layer id="262" name="Constant_61935" type="Const" version="opset1">
			<data element_type="f32" shape="1, 42, 1, 1" offset="758068" size="168"/>
			<output>
				<port id="0" precision="FP32">
					<dim>1</dim>
					<dim>42</dim>
					<dim>1</dim>
					<dim>1</dim>
				</port>
			</output>
		</layer>
		<layer id="263" name="1606" type="Add" version="opset1">
			<data auto_broadcast="numpy"/>
			<rt_info>
				<attribute name="fused_names" version="0" value="1606, backbone.module.stages.1.0.branches.1.0.bn1.bias, backbone.module.stages.1.0.branches.1.0.bn1.running_mean, backbone.module.stages.1.0.branches.1.0.bn1.running_var, backbone.module.stages.1.0.branches.1.0.bn1.weight"/>
			</rt_info>
			<input>
				<port id="0" precision="FP32">
					<dim>1</dim>
					<dim>42</dim>
					<dim>36</dim>
					<dim>36</dim>
				</port>
				<port id="1" precision="FP32">
					<dim>1</dim>
					<dim>42</dim>
					<dim>1</dim>
					<dim>1</dim>
				</port>
			</input>
			<output>
				<port id="2" precision="FP32" names="1606">
					<dim>1</dim>
					<dim>42</dim>
					<dim>36</dim>
					<dim>36</dim>
				</port>
			</output>
		</layer>
		<layer id="264" name="1607" type="ReLU" version="opset1">
			<rt_info>
				<attribute name="fused_names" version="0" value="1607"/>
			</rt_info>
			<input>
				<port id="0" precision="FP32">
					<dim>1</dim>
					<dim>42</dim>
					<dim>36</dim>
					<dim>36</dim>
				</port>
			</input>
			<output>
				<port id="1" precision="FP32" names="1607">
					<dim>1</dim>
					<dim>42</dim>
					<dim>36</dim>
					<dim>36</dim>
				</port>
			</output>
		</layer>
		<layer id="265" name="Multiply_63290" type="Const" version="opset1">
			<data element_type="f32" shape="42, 42, 3, 3" offset="758236" size="63504"/>
			<output>
				<port id="0" precision="FP32">
					<dim>42</dim>
					<dim>42</dim>
					<dim>3</dim>
					<dim>3</dim>
				</port>
			</output>
		</layer>
		<layer id="266" name="Multiply_61937" type="Convolution" version="opset1">
			<data strides="1, 1" dilations="1, 1" pads_begin="1, 1" pads_end="1, 1" auto_pad="explicit"/>
			<rt_info>
				<attribute name="fused_names" version="0" value="1608, 1609, backbone.module.stages.1.0.branches.1.0.bn2.bias, backbone.module.stages.1.0.branches.1.0.bn2.running_mean, backbone.module.stages.1.0.branches.1.0.bn2.running_var, backbone.module.stages.1.0.branches.1.0.bn2.weight"/>
			</rt_info>
			<input>
				<port id="0" precision="FP32">
					<dim>1</dim>
					<dim>42</dim>
					<dim>36</dim>
					<dim>36</dim>
				</port>
				<port id="1" precision="FP32">
					<dim>42</dim>
					<dim>42</dim>
					<dim>3</dim>
					<dim>3</dim>
				</port>
			</input>
			<output>
				<port id="2" precision="FP32">
					<dim>1</dim>
					<dim>42</dim>
					<dim>36</dim>
					<dim>36</dim>
				</port>
			</output>
		</layer>
		<layer id="267" name="Constant_61942" type="Const" version="opset1">
			<data element_type="f32" shape="1, 42, 1, 1" offset="821740" size="168"/>
			<output>
				<port id="0" precision="FP32">
					<dim>1</dim>
					<dim>42</dim>
					<dim>1</dim>
					<dim>1</dim>
				</port>
			</output>
		</layer>
		<layer id="268" name="1609" type="Add" version="opset1">
			<data auto_broadcast="numpy"/>
			<rt_info>
				<attribute name="fused_names" version="0" value="1609, backbone.module.stages.1.0.branches.1.0.bn2.bias, backbone.module.stages.1.0.branches.1.0.bn2.running_mean, backbone.module.stages.1.0.branches.1.0.bn2.running_var, backbone.module.stages.1.0.branches.1.0.bn2.weight"/>
			</rt_info>
			<input>
				<port id="0" precision="FP32">
					<dim>1</dim>
					<dim>42</dim>
					<dim>36</dim>
					<dim>36</dim>
				</port>
				<port id="1" precision="FP32">
					<dim>1</dim>
					<dim>42</dim>
					<dim>1</dim>
					<dim>1</dim>
				</port>
			</input>
			<output>
				<port id="2" precision="FP32" names="1609">
					<dim>1</dim>
					<dim>42</dim>
					<dim>36</dim>
					<dim>36</dim>
				</port>
			</output>
		</layer>
		<layer id="269" name="1610" type="Add" version="opset1">
			<data auto_broadcast="numpy"/>
			<rt_info>
				<attribute name="fused_names" version="0" value="1610"/>
			</rt_info>
			<input>
				<port id="0" precision="FP32">
					<dim>1</dim>
					<dim>42</dim>
					<dim>36</dim>
					<dim>36</dim>
				</port>
				<port id="1" precision="FP32">
					<dim>1</dim>
					<dim>42</dim>
					<dim>36</dim>
					<dim>36</dim>
				</port>
			</input>
			<output>
				<port id="2" precision="FP32" names="1610">
					<dim>1</dim>
					<dim>42</dim>
					<dim>36</dim>
					<dim>36</dim>
				</port>
			</output>
		</layer>
		<layer id="270" name="1611" type="ReLU" version="opset1">
			<rt_info>
				<attribute name="fused_names" version="0" value="1611"/>
			</rt_info>
			<input>
				<port id="0" precision="FP32">
					<dim>1</dim>
					<dim>42</dim>
					<dim>36</dim>
					<dim>36</dim>
				</port>
			</input>
			<output>
				<port id="1" precision="FP32" names="1611">
					<dim>1</dim>
					<dim>42</dim>
					<dim>36</dim>
					<dim>36</dim>
				</port>
			</output>
		</layer>
		<layer id="271" name="Multiply_63299" type="Const" version="opset1">
			<data element_type="f32" shape="42, 42, 3, 3" offset="821908" size="63504"/>
			<output>
				<port id="0" precision="FP32">
					<dim>42</dim>
					<dim>42</dim>
					<dim>3</dim>
					<dim>3</dim>
				</port>
			</output>
		</layer>
		<layer id="272" name="Multiply_61944" type="Convolution" version="opset1">
			<data strides="1, 1" dilations="1, 1" pads_begin="1, 1" pads_end="1, 1" auto_pad="explicit"/>
			<rt_info>
				<attribute name="fused_names" version="0" value="1612, 1613, backbone.module.stages.1.0.branches.1.1.bn1.bias, backbone.module.stages.1.0.branches.1.1.bn1.running_mean, backbone.module.stages.1.0.branches.1.1.bn1.running_var, backbone.module.stages.1.0.branches.1.1.bn1.weight"/>
			</rt_info>
			<input>
				<port id="0" precision="FP32">
					<dim>1</dim>
					<dim>42</dim>
					<dim>36</dim>
					<dim>36</dim>
				</port>
				<port id="1" precision="FP32">
					<dim>42</dim>
					<dim>42</dim>
					<dim>3</dim>
					<dim>3</dim>
				</port>
			</input>
			<output>
				<port id="2" precision="FP32">
					<dim>1</dim>
					<dim>42</dim>
					<dim>36</dim>
					<dim>36</dim>
				</port>
			</output>
		</layer>
		<layer id="273" name="Constant_61949" type="Const" version="opset1">
			<data element_type="f32" shape="1, 42, 1, 1" offset="885412" size="168"/>
			<output>
				<port id="0" precision="FP32">
					<dim>1</dim>
					<dim>42</dim>
					<dim>1</dim>
					<dim>1</dim>
				</port>
			</output>
		</layer>
		<layer id="274" name="1613" type="Add" version="opset1">
			<data auto_broadcast="numpy"/>
			<rt_info>
				<attribute name="fused_names" version="0" value="1613, backbone.module.stages.1.0.branches.1.1.bn1.bias, backbone.module.stages.1.0.branches.1.1.bn1.running_mean, backbone.module.stages.1.0.branches.1.1.bn1.running_var, backbone.module.stages.1.0.branches.1.1.bn1.weight"/>
			</rt_info>
			<input>
				<port id="0" precision="FP32">
					<dim>1</dim>
					<dim>42</dim>
					<dim>36</dim>
					<dim>36</dim>
				</port>
				<port id="1" precision="FP32">
					<dim>1</dim>
					<dim>42</dim>
					<dim>1</dim>
					<dim>1</dim>
				</port>
			</input>
			<output>
				<port id="2" precision="FP32" names="1613">
					<dim>1</dim>
					<dim>42</dim>
					<dim>36</dim>
					<dim>36</dim>
				</port>
			</output>
		</layer>
		<layer id="275" name="1614" type="ReLU" version="opset1">
			<rt_info>
				<attribute name="fused_names" version="0" value="1614"/>
			</rt_info>
			<input>
				<port id="0" precision="FP32">
					<dim>1</dim>
					<dim>42</dim>
					<dim>36</dim>
					<dim>36</dim>
				</port>
			</input>
			<output>
				<port id="1" precision="FP32" names="1614">
					<dim>1</dim>
					<dim>42</dim>
					<dim>36</dim>
					<dim>36</dim>
				</port>
			</output>
		</layer>
		<layer id="276" name="Multiply_63308" type="Const" version="opset1">
			<data element_type="f32" shape="42, 42, 3, 3" offset="885580" size="63504"/>
			<output>
				<port id="0" precision="FP32">
					<dim>42</dim>
					<dim>42</dim>
					<dim>3</dim>
					<dim>3</dim>
				</port>
			</output>
		</layer>
		<layer id="277" name="Multiply_61951" type="Convolution" version="opset1">
			<data strides="1, 1" dilations="1, 1" pads_begin="1, 1" pads_end="1, 1" auto_pad="explicit"/>
			<rt_info>
				<attribute name="fused_names" version="0" value="1615, 1616, backbone.module.stages.1.0.branches.1.1.bn2.bias, backbone.module.stages.1.0.branches.1.1.bn2.running_mean, backbone.module.stages.1.0.branches.1.1.bn2.running_var, backbone.module.stages.1.0.branches.1.1.bn2.weight"/>
			</rt_info>
			<input>
				<port id="0" precision="FP32">
					<dim>1</dim>
					<dim>42</dim>
					<dim>36</dim>
					<dim>36</dim>
				</port>
				<port id="1" precision="FP32">
					<dim>42</dim>
					<dim>42</dim>
					<dim>3</dim>
					<dim>3</dim>
				</port>
			</input>
			<output>
				<port id="2" precision="FP32">
					<dim>1</dim>
					<dim>42</dim>
					<dim>36</dim>
					<dim>36</dim>
				</port>
			</output>
		</layer>
		<layer id="278" name="Constant_61956" type="Const" version="opset1">
			<data element_type="f32" shape="1, 42, 1, 1" offset="949084" size="168"/>
			<output>
				<port id="0" precision="FP32">
					<dim>1</dim>
					<dim>42</dim>
					<dim>1</dim>
					<dim>1</dim>
				</port>
			</output>
		</layer>
		<layer id="279" name="1616" type="Add" version="opset1">
…
		<edge from-layer="1325" from-port="0" to-layer="1326" to-port="1"/>
		<edge from-layer="1326" from-port="2" to-layer="1327" to-port="1"/>
		<edge from-layer="1327" from-port="2" to-layer="1328" to-port="0"/>
		<edge from-layer="1328" from-port="1" to-layer="1329" to-port="1"/>
		<edge from-layer="1329" from-port="2" to-layer="1330" to-port="0"/>
		<edge from-layer="1329" from-port="2" to-layer="1335" to-port="1"/>
		<edge from-layer="1330" from-port="1" to-layer="1332" to-port="0"/>
		<edge from-layer="1331" from-port="1" to-layer="1332" to-port="1"/>
		<edge from-layer="1332" from-port="2" to-layer="1334" to-port="0"/>
		<edge from-layer="1333" from-port="0" to-layer="1334" to-port="1"/>
		<edge from-layer="1334" from-port="2" to-layer="1335" to-port="2"/>
		<edge from-layer="1335" from-port="3" to-layer="1336" to-port="1"/>
		<edge from-layer="1336" from-port="2" to-layer="1337" to-port="0"/>
		<edge from-layer="1337" from-port="1" to-layer="1339" to-port="0"/>
		<edge from-layer="1337" from-port="1" to-layer="1347" to-port="1"/>
		<edge from-layer="1338" from-port="0" to-layer="1339" to-port="1"/>
		<edge from-layer="1339" from-port="2" to-layer="1341" to-port="0"/>
		<edge from-layer="1340" from-port="0" to-layer="1341" to-port="1"/>
		<edge from-layer="1341" from-port="2" to-layer="1342" to-port="0"/>
		<edge from-layer="1342" from-port="1" to-layer="1344" to-port="0"/>
		<edge from-layer="1343" from-port="0" to-layer="1344" to-port="1"/>
		<edge from-layer="1344" from-port="2" to-layer="1346" to-port="0"/>
		<edge from-layer="1345" from-port="0" to-layer="1346" to-port="1"/>
		<edge from-layer="1346" from-port="2" to-layer="1347" to-port="0"/>
		<edge from-layer="1347" from-port="2" to-layer="1348" to-port="0"/>
		<edge from-layer="1348" from-port="1" to-layer="1350" to-port="0"/>
		<edge from-layer="1348" from-port="1" to-layer="1358" to-port="1"/>
		<edge from-layer="1349" from-port="0" to-layer="1350" to-port="1"/>
		<edge from-layer="1350" from-port="2" to-layer="1352" to-port="0"/>
		<edge from-layer="1351" from-port="0" to-layer="1352" to-port="1"/>
		<edge from-layer="1352" from-port="2" to-layer="1353" to-port="0"/>
		<edge from-layer="1353" from-port="1" to-layer="1355" to-port="0"/>
		<edge from-layer="1354" from-port="0" to-layer="1355" to-port="1"/>
		<edge from-layer="1355" from-port="2" to-layer="1357" to-port="0"/>
		<edge from-layer="1356" from-port="0" to-layer="1357" to-port="1"/>
		<edge from-layer="1357" from-port="2" to-layer="1358" to-port="0"/>
		<edge from-layer="1358" from-port="2" to-layer="1359" to-port="0"/>
		<edge from-layer="1359" from-port="1" to-layer="1361" to-port="0"/>
		<edge from-layer="1359" from-port="1" to-layer="1786" to-port="0"/>
		<edge from-layer="1359" from-port="1" to-layer="1663" to-port="1"/>
		<edge from-layer="1359" from-port="1" to-layer="1516" to-port="0"/>
		<edge from-layer="1360" from-port="0" to-layer="1361" to-port="1"/>
		<edge from-layer="1361" from-port="2" to-layer="1363" to-port="0"/>
		<edge from-layer="1362" from-port="0" to-layer="1363" to-port="1"/>
		<edge from-layer="1363" from-port="2" to-layer="1364" to-port="0"/>
		<edge from-layer="1363" from-port="2" to-layer="1395" to-port="0"/>
		<edge from-layer="1364" from-port="1" to-layer="1391" to-port="0"/>
		<edge from-layer="1364" from-port="1" to-layer="1371" to-port="0"/>
		<edge from-layer="1364" from-port="1" to-layer="1368" to-port="0"/>
		<edge from-layer="1364" from-port="1" to-layer="1380" to-port="0"/>
		<edge from-layer="1365" from-port="0" to-layer="1368" to-port="1"/>
		<edge from-layer="1366" from-port="0" to-layer="1368" to-port="2"/>
		<edge from-layer="1367" from-port="0" to-layer="1368" to-port="3"/>
		<edge from-layer="1368" from-port="4" to-layer="1389" to-port="0"/>
		<edge from-layer="1369" from-port="0" to-layer="1371" to-port="1"/>
		<edge from-layer="1370" from-port="0" to-layer="1371" to-port="2"/>
		<edge from-layer="1371" from-port="3" to-layer="1372" to-port="0"/>
		<edge from-layer="1372" from-port="1" to-layer="1374" to-port="0"/>
		<edge from-layer="1373" from-port="0" to-layer="1374" to-port="1"/>
		<edge from-layer="1374" from-port="2" to-layer="1375" to-port="0"/>
		<edge from-layer="1375" from-port="1" to-layer="1377" to-port="0"/>
		<edge from-layer="1376" from-port="0" to-layer="1377" to-port="1"/>
		<edge from-layer="1377" from-port="2" to-layer="1387" to-port="0"/>
		<edge from-layer="1378" from-port="0" to-layer="1380" to-port="1"/>
		<edge from-layer="1379" from-port="0" to-layer="1380" to-port="2"/>
		<edge from-layer="1380" from-port="3" to-layer="1381" to-port="0"/>
		<edge from-layer="1381" from-port="1" to-layer="1383" to-port="0"/>
		<edge from-layer="1382" from-port="0" to-layer="1383" to-port="1"/>
		<edge from-layer="1383" from-port="2" to-layer="1384" to-port="0"/>
		<edge from-layer="1384" from-port="1" to-layer="1386" to-port="0"/>
		<edge from-layer="1385" from-port="0" to-layer="1386" to-port="1"/>
		<edge from-layer="1386" from-port="2" to-layer="1387" to-port="1"/>
		<edge from-layer="1387" from-port="2" to-layer="1388" to-port="0"/>
		<edge from-layer="1388" from-port="1" to-layer="1389" to-port="1"/>
		<edge from-layer="1389" from-port="2" to-layer="1395" to-port="1"/>
		<edge from-layer="1389" from-port="2" to-layer="1390" to-port="0"/>
		<edge from-layer="1390" from-port="1" to-layer="1392" to-port="0"/>
		<edge from-layer="1391" from-port="1" to-layer="1392" to-port="1"/>
		<edge from-layer="1392" from-port="2" to-layer="1394" to-port="0"/>
		<edge from-layer="1393" from-port="0" to-layer="1394" to-port="1"/>
		<edge from-layer="1394" from-port="2" to-layer="1395" to-port="2"/>
		<edge from-layer="1395" from-port="3" to-layer="1396" to-port="1"/>
		<edge from-layer="1396" from-port="2" to-layer="1486" to-port="0"/>
		<edge from-layer="1397" from-port="0" to-layer="1398" to-port="1"/>
		<edge from-layer="1398" from-port="2" to-layer="1400" to-port="0"/>
		<edge from-layer="1399" from-port="0" to-layer="1400" to-port="1"/>
		<edge from-layer="1400" from-port="2" to-layer="1401" to-port="0"/>
		<edge from-layer="1401" from-port="1" to-layer="1403" to-port="0"/>
		<edge from-layer="1402" from-port="0" to-layer="1403" to-port="1"/>
		<edge from-layer="1403" from-port="2" to-layer="1405" to-port="0"/>
		<edge from-layer="1404" from-port="0" to-layer="1405" to-port="1"/>
		<edge from-layer="1405" from-port="2" to-layer="1406" to-port="0"/>
		<edge from-layer="1406" from-port="1" to-layer="1408" to-port="0"/>
		<edge from-layer="1407" from-port="0" to-layer="1408" to-port="1"/>
		<edge from-layer="1408" from-port="2" to-layer="1410" to-port="0"/>
		<edge from-layer="1409" from-port="0" to-layer="1410" to-port="1"/>
		<edge from-layer="1410" from-port="2" to-layer="1420" to-port="0"/>
		<edge from-layer="1411" from-port="0" to-layer="1412" to-port="1"/>
		<edge from-layer="1412" from-port="2" to-layer="1414" to-port="0"/>
		<edge from-layer="1413" from-port="0" to-layer="1414" to-port="1"/>
		<edge from-layer="1414" from-port="2" to-layer="1415" to-port="0"/>
		<edge from-layer="1415" from-port="1" to-layer="1417" to-port="0"/>
		<edge from-layer="1416" from-port="0" to-layer="1417" to-port="1"/>
		<edge from-layer="1417" from-port="2" to-layer="1419" to-port="0"/>
		<edge from-layer="1418" from-port="0" to-layer="1419" to-port="1"/>
		<edge from-layer="1419" from-port="2" to-layer="1420" to-port="1"/>
		<edge from-layer="1420" from-port="2" to-layer="1425" to-port="0"/>
		<edge from-layer="1421" from-port="0" to-layer="1422" to-port="1"/>
		<edge from-layer="1422" from-port="2" to-layer="1424" to-port="0"/>
		<edge from-layer="1423" from-port="0" to-layer="1424" to-port="1"/>
		<edge from-layer="1424" from-port="2" to-layer="1425" to-port="1"/>
		<edge from-layer="1425" from-port="2" to-layer="1426" to-port="0"/>
		<edge from-layer="1426" from-port="2" to-layer="1427" to-port="0"/>
		<edge from-layer="1427" from-port="1" to-layer="1429" to-port="0"/>
		<edge from-layer="1427" from-port="1" to-layer="1437" to-port="1"/>
		<edge from-layer="1428" from-port="0" to-layer="1429" to-port="1"/>
		<edge from-layer="1429" from-port="2" to-layer="1431" to-port="0"/>
		<edge from-layer="1430" from-port="0" to-layer="1431" to-port="1"/>
		<edge from-layer="1431" from-port="2" to-layer="1432" to-port="0"/>
		<edge from-layer="1432" from-port="1" to-layer="1434" to-port="0"/>
		<edge from-layer="1433" from-port="0" to-layer="1434" to-port="1"/>
		<edge from-layer="1434" from-port="2" to-layer="1436" to-port="0"/>
		<edge from-layer="1435" from-port="0" to-layer="1436" to-port="1"/>
		<edge from-layer="1436" from-port="2" to-layer="1437" to-port="0"/>
		<edge from-layer="1437" from-port="2" to-layer="1438" to-port="0"/>
		<edge from-layer="1438" from-port="1" to-layer="1448" to-port="1"/>
		<edge from-layer="1438" from-port="1" to-layer="1440" to-port="0"/>
		<edge from-layer="1439" from-port="0" to-layer="1440" to-port="1"/>
		<edge from-layer="1440" from-port="2" to-layer="1442" to-port="0"/>
		<edge from-layer="1441" from-port="0" to-layer="1442" to-port="1"/>
		<edge from-layer="1442" from-port="2" to-layer="1443" to-port="0"/>
		<edge from-layer="1443" from-port="1" to-layer="1445" to-port="0"/>
		<edge from-layer="1444" from-port="0" to-layer="1445" to-port="1"/>
		<edge from-layer="1445" from-port="2" to-layer="1447" to-port="0"/>
		<edge from-layer="1446" from-port="0" to-layer="1447" to-port="1"/>
		<edge from-layer="1447" from-port="2" to-layer="1448" to-port="0"/>
		<edge from-layer="1448" from-port="2" to-layer="1449" to-port="0"/>
		<edge from-layer="1449" from-port="1" to-layer="1553" to-port="0"/>
		<edge from-layer="1449" from-port="1" to-layer="1665" to-port="0"/>
		<edge from-layer="1449" from-port="1" to-layer="1790" to-port="1"/>
		<edge from-layer="1449" from-port="1" to-layer="1451" to-port="0"/>
		<edge from-layer="1450" from-port="0" to-layer="1451" to-port="1"/>
		<edge from-layer="1451" from-port="2" to-layer="1453" to-port="0"/>
		<edge from-layer="1452" from-port="0" to-layer="1453" to-port="1"/>
		<edge from-layer="1453" from-port="2" to-layer="1485" to-port="0"/>
		<edge from-layer="1453" from-port="2" to-layer="1454" to-port="0"/>
		<edge from-layer="1454" from-port="1" to-layer="1481" to-port="0"/>
		<edge from-layer="1454" from-port="1" to-layer="1470" to-port="0"/>
		<edge from-layer="1454" from-port="1" to-layer="1461" to-port="0"/>
		<edge from-layer="1454" from-port="1" to-layer="1458" to-port="0"/>
		<edge from-layer="1455" from-port="0" to-layer="1458" to-port="1"/>
		<edge from-layer="1456" from-port="0" to-layer="1458" to-port="2"/>
		<edge from-layer="1457" from-port="0" to-layer="1458" to-port="3"/>
		<edge from-layer="1458" from-port="4" to-layer="1479" to-port="0"/>
		<edge from-layer="1459" from-port="0" to-layer="1461" to-port="1"/>
		<edge from-layer="1460" from-port="0" to-layer="1461" to-port="2"/>
		<edge from-layer="1461" from-port="3" to-layer="1462" to-port="0"/>
		<edge from-layer="1462" from-port="1" to-layer="1464" to-port="0"/>
		<edge from-layer="1463" from-port="0" to-layer="1464" to-port="1"/>
		<edge from-layer="1464" from-port="2" to-layer="1465" to-port="0"/>
		<edge from-layer="1465" from-port="1" to-layer="1467" to-port="0"/>
		<edge from-layer="1466" from-port="0" to-layer="1467" to-port="1"/>
		<edge from-layer="1467" from-port="2" to-layer="1477" to-port="0"/>
		<edge from-layer="1468" from-port="0" to-layer="1470" to-port="1"/>
		<edge from-layer="1469" from-port="0" to-layer="1470" to-port="2"/>
		<edge from-layer="1470" from-port="3" to-layer="1471" to-port="0"/>
		<edge from-layer="1471" from-port="1" to-layer="1473" to-port="0"/>
		<edge from-layer="1472" from-port="0" to-layer="1473" to-port="1"/>
		<edge from-layer="1473" from-port="2" to-layer="1474" to-port="0"/>
		<edge from-layer="1474" from-port="1" to-layer="1476" to-port="0"/>
		<edge from-layer="1475" from-port="0" to-layer="1476" to-port="1"/>
		<edge from-layer="1476" from-port="2" to-layer="1477" to-port="1"/>
		<edge from-layer="1477" from-port="2" to-layer="1478" to-port="0"/>
		<edge from-layer="1478" from-port="1" to-layer="1479" to-port="1"/>
		<edge from-layer="1479" from-port="2" to-layer="1485" to-port="1"/>
		<edge from-layer="1479" from-port="2" to-layer="1480" to-port="0"/>
		<edge from-layer="1480" from-port="1" to-layer="1482" to-port="0"/>
		<edge from-layer="1481" from-port="1" to-layer="1482" to-port="1"/>
		<edge from-layer="1482" from-port="2" to-layer="1484" to-port="0"/>
		<edge from-layer="1483" from-port="0" to-layer="1484" to-port="1"/>
		<edge from-layer="1484" from-port="2" to-layer="1485" to-port="2"/>
		<edge from-layer="1485" from-port="3" to-layer="1486" to-port="1"/>
		<edge from-layer="1486" from-port="2" to-layer="1487" to-port="0"/>
		<edge from-layer="1487" from-port="1" to-layer="1497" to-port="1"/>
		<edge from-layer="1487" from-port="1" to-layer="1489" to-port="0"/>
		<edge from-layer="1488" from-port="0" to-layer="1489" to-port="1"/>
		<edge from-layer="1489" from-port="2" to-layer="1491" to-port="0"/>
		<edge from-layer="1490" from-port="0" to-layer="1491" to-port="1"/>
		<edge from-layer="1491" from-port="2" to-layer="1492" to-port="0"/>
		<edge from-layer="1492" from-port="1" to-layer="1494" to-port="0"/>
		<edge from-layer="1493" from-port="0" to-layer="1494" to-port="1"/>
		<edge from-layer="1494" from-port="2" to-layer="1496" to-port="0"/>
		<edge from-layer="1495" from-port="0" to-layer="1496" to-port="1"/>
		<edge from-layer="1496" from-port="2" to-layer="1497" to-port="0"/>
		<edge from-layer="1497" from-port="2" to-layer="1498" to-port="0"/>
		<edge from-layer="1498" from-port="1" to-layer="1508" to-port="1"/>
		<edge from-layer="1498" from-port="1" to-layer="1500" to-port="0"/>
		<edge from-layer="1499" from-port="0" to-layer="1500" to-port="1"/>
		<edge from-layer="1500" from-port="2" to-layer="1502" to-port="0"/>
		<edge from-layer="1501" from-port="0" to-layer="1502" to-port="1"/>
		<edge from-layer="1502" from-port="2" to-layer="1503" to-port="0"/>
		<edge from-layer="1503" from-port="1" to-layer="1505" to-port="0"/>
		<edge from-layer="1504" from-port="0" to-layer="1505" to-port="1"/>
		<edge from-layer="1505" from-port="2" to-layer="1507" to-port="0"/>
		<edge from-layer="1506" from-port="0" to-layer="1507" to-port="1"/>
		<edge from-layer="1507" from-port="2" to-layer="1508" to-port="0"/>
		<edge from-layer="1508" from-port="2" to-layer="1509" to-port="0"/>
		<edge from-layer="1509" from-port="1" to-layer="1648" to-port="0"/>
		<edge from-layer="1510" from-port="0" to-layer="1511" to-port="1"/>
		<edge from-layer="1511" from-port="2" to-layer="1513" to-port="0"/>
		<edge from-layer="1512" from-port="0" to-layer="1513" to-port="1"/>
		<edge from-layer="1513" from-port="2" to-layer="1514" to-port="0"/>
		<edge from-layer="1514" from-port="2" to-layer="1551" to-port="0"/>
		<edge from-layer="1515" from-port="0" to-layer="1516" to-port="1"/>
		<edge from-layer="1516" from-port="2" to-layer="1518" to-port="0"/>
		<edge from-layer="1517" from-port="0" to-layer="1518" to-port="1"/>
		<edge from-layer="1518" from-port="2" to-layer="1550" to-port="0"/>
		<edge from-layer="1518" from-port="2" to-layer="1519" to-port="0"/>
		<edge from-layer="1519" from-port="1" to-layer="1546" to-port="0"/>
		<edge from-layer="1519" from-port="1" to-layer="1535" to-port="0"/>
		<edge from-layer="1519" from-port="1" to-layer="1526" to-port="0"/>
		<edge from-layer="1519" from-port="1" to-layer="1523" to-port="0"/>
		<edge from-layer="1520" from-port="0" to-layer="1523" to-port="1"/>
		<edge from-layer="1521" from-port="0" to-layer="1523" to-port="2"/>
		<edge from-layer="1522" from-port="0" to-layer="1523" to-port="3"/>
		<edge from-layer="1523" from-port="4" to-layer="1544" to-port="0"/>
		<edge from-layer="1524" from-port="0" to-layer="1526" to-port="1"/>
		<edge from-layer="1525" from-port="0" to-layer="1526" to-port="2"/>
		<edge from-layer="1526" from-port="3" to-layer="1527" to-port="0"/>
		<edge from-layer="1527" from-port="1" to-layer="1529" to-port="0"/>
		<edge from-layer="1528" from-port="0" to-layer="1529" to-port="1"/>
		<edge from-layer="1529" from-port="2" to-layer="1530" to-port="0"/>
		<edge from-layer="1530" from-port="1" to-layer="1532" to-port="0"/>
		<edge from-layer="1531" from-port="0" to-layer="1532" to-port="1"/>
		<edge from-layer="1532" from-port="2" to-layer="1542" to-port="0"/>
		<edge from-layer="1533" from-port="0" to-layer="1535" to-port="1"/>
		<edge from-layer="1534" from-port="0" to-layer="1535" to-port="2"/>
		<edge from-layer="1535" from-port="3" to-layer="1536" to-port="0"/>
		<edge from-layer="1536" from-port="1" to-layer="1538" to-port="0"/>
		<edge from-layer="1537" from-port="0" to-layer="1538" to-port="1"/>
		<edge from-layer="1538" from-port="2" to-layer="1539" to-port="0"/>
		<edge from-layer="1539" from-port="1" to-layer="1541" to-port="0"/>
		<edge from-layer="1540" from-port="0" to-layer="1541" to-port="1"/>
		<edge from-layer="1541" from-port="2" to-layer="1542" to-port="1"/>
		<edge from-layer="1542" from-port="2" to-layer="1543" to-port="0"/>
		<edge from-layer="1543" from-port="1" to-layer="1544" to-port="1"/>
		<edge from-layer="1544" from-port="2" to-layer="1545" to-port="0"/>
		<edge from-layer="1544" from-port="2" to-layer="1550" to-port="1"/>
		<edge from-layer="1545" from-port="1" to-layer="1547" to-port="0"/>
		<edge from-layer="1546" from-port="1" to-layer="1547" to-port="1"/>
		<edge from-layer="1547" from-port="2" to-layer="1549" to-port="0"/>
		<edge from-layer="1548" from-port="0" to-layer="1549" to-port="1"/>
		<edge from-layer="1549" from-port="2" to-layer="1550" to-port="2"/>
		<edge from-layer="1550" from-port="3" to-layer="1551" to-port="1"/>
		<edge from-layer="1551" from-port="2" to-layer="1588" to-port="0"/>
		<edge from-layer="1552" from-port="0" to-layer="1553" to-port="1"/>
		<edge from-layer="1553" from-port="2" to-layer="1555" to-port="0"/>
		<edge from-layer="1554" from-port="0" to-layer="1555" to-port="1"/>
		<edge from-layer="1555" from-port="2" to-layer="1587" to-port="0"/>
		<edge from-layer="1555" from-port="2" to-layer="1556" to-port="0"/>
		<edge from-layer="1556" from-port="1" to-layer="1572" to-port="0"/>
		<edge from-layer="1556" from-port="1" to-layer="1563" to-port="0"/>
		<edge from-layer="1556" from-port="1" to-layer="1560" to-port="0"/>
		<edge from-layer="1556" from-port="1" to-layer="1583" to-port="0"/>
		<edge from-layer="1557" from-port="0" to-layer="1560" to-port="1"/>
		<edge from-layer="1558" from-port="0" to-layer="1560" to-port="2"/>
		<edge from-layer="1559" from-port="0" to-layer="1560" to-port="3"/>
		<edge from-layer="1560" from-port="4" to-layer="1581" to-port="0"/>
		<edge from-layer="1561" from-port="0" to-layer="1563" to-port="1"/>
		<edge from-layer="1562" from-port="0" to-layer="1563" to-port="2"/>
		<edge from-layer="1563" from-port="3" to-layer="1564" to-port="0"/>
		<edge from-layer="1564" from-port="1" to-layer="1566" to-port="0"/>
		<edge from-layer="1565" from-port="0" to-layer="1566" to-port="1"/>
		<edge from-layer="1566" from-port="2" to-layer="1567" to-port="0"/>
		<edge from-layer="1567" from-port="1" to-layer="1569" to-port="0"/>
		<edge from-layer="1568" from-port="0" to-layer="1569" to-port="1"/>
		<edge from-layer="1569" from-port="2" to-layer="1579" to-port="0"/>
		<edge from-layer="1570" from-port="0" to-layer="1572" to-port="1"/>
		<edge from-layer="1571" from-port="0" to-layer="1572" to-port="2"/>
		<edge from-layer="1572" from-port="3" to-layer="1573" to-port="0"/>
		<edge from-layer="1573" from-port="1" to-layer="1575" to-port="0"/>
		<edge from-layer="1574" from-port="0" to-layer="1575" to-port="1"/>
		<edge from-layer="1575" from-port="2" to-layer="1576" to-port="0"/>
		<edge from-layer="1576" from-port="1" to-layer="1578" to-port="0"/>
		<edge from-layer="1577" from-port="0" to-layer="1578" to-port="1"/>
		<edge from-layer="1578" from-port="2" to-layer="1579" to-port="1"/>
		<edge from-layer="1579" from-port="2" to-layer="1580" to-port="0"/>
		<edge from-layer="1580" from-port="1" to-layer="1581" to-port="1"/>
		<edge from-layer="1581" from-port="2" to-layer="1587" to-port="1"/>
		<edge from-layer="1581" from-port="2" to-layer="1582" to-port="0"/>
		<edge from-layer="1582" from-port="1" to-layer="1584" to-port="0"/>
		<edge from-layer="1583" from-port="1" to-layer="1584" to-port="1"/>
		<edge from-layer="1584" from-port="2" to-layer="1586" to-port="0"/>
		<edge from-layer="1585" from-port="0" to-layer="1586" to-port="1"/>
		<edge from-layer="1586" from-port="2" to-layer="1587" to-port="2"/>
		<edge from-layer="1587" from-port="3" to-layer="1588" to-port="1"/>
		<edge from-layer="1588" from-port="2" to-layer="1589" to-port="0"/>
		<edge from-layer="1589" from-port="1" to-layer="1599" to-port="1"/>
		<edge from-layer="1589" from-port="1" to-layer="1591" to-port="0"/>
		<edge from-layer="1590" from-port="0" to-layer="1591" to-port="1"/>
		<edge from-layer="1591" from-port="2" to-layer="1593" to-port="0"/>
		<edge from-layer="1592" from-port="0" to-layer="1593" to-port="1"/>
		<edge from-layer="1593" from-port="2" to-layer="1594" to-port="0"/>
		<edge from-layer="1594" from-port="1" to-layer="1596" to-port="0"/>
		<edge from-layer="1595" from-port="0" to-layer="1596" to-port="1"/>
		<edge from-layer="1596" from-port="2" to-layer="1598" to-port="0"/>
		<edge from-layer="1597" from-port="0" to-layer="1598" to-port="1"/>
		<edge from-layer="1598" from-port="2" to-layer="1599" to-port="0"/>
		<edge from-layer="1599" from-port="2" to-layer="1600" to-port="0"/>
		<edge from-layer="1600" from-port="1" to-layer="1610" to-port="1"/>
		<edge from-layer="1600" from-port="1" to-layer="1602" to-port="0"/>
		<edge from-layer="1601" from-port="0" to-layer="1602" to-port="1"/>
		<edge from-layer="1602" from-port="2" to-layer="1604" to-port="0"/>
		<edge from-layer="1603" from-port="0" to-layer="1604" to-port="1"/>
		<edge from-layer="1604" from-port="2" to-layer="1605" to-port="0"/>
		<edge from-layer="1605" from-port="1" to-layer="1607" to-port="0"/>
		<edge from-layer="1606" from-port="0" to-layer="1607" to-port="1"/>
		<edge from-layer="1607" from-port="2" to-layer="1609" to-port="0"/>
		<edge from-layer="1608" from-port="0" to-layer="1609" to-port="1"/>
		<edge from-layer="1609" from-port="2" to-layer="1610" to-port="0"/>
		<edge from-layer="1610" from-port="2" to-layer="1611" to-port="0"/>
		<edge from-layer="1611" from-port="1" to-layer="1613" to-port="0"/>
		<edge from-layer="1612" from-port="0" to-layer="1613" to-port="1"/>
		<edge from-layer="1613" from-port="2" to-layer="1615" to-port="0"/>
		<edge from-layer="1614" from-port="0" to-layer="1615" to-port="1"/>
		<edge from-layer="1615" from-port="2" to-layer="1616" to-port="0"/>
		<edge from-layer="1615" from-port="2" to-layer="1647" to-port="0"/>
		<edge from-layer="1616" from-port="1" to-layer="1620" to-port="0"/>
		<edge from-layer="1616" from-port="1" to-layer="1643" to-port="0"/>
		<edge from-layer="1616" from-port="1" to-layer="1632" to-port="0"/>
		<edge from-layer="1616" from-port="1" to-layer="1623" to-port="0"/>
		<edge from-layer="1617" from-port="0" to-layer="1620" to-port="1"/>
		<edge from-layer="1618" from-port="0" to-layer="1620" to-port="2"/>
		<edge from-layer="1619" from-port="0" to-layer="1620" to-port="3"/>
		<edge from-layer="1620" from-port="4" to-layer="1641" to-port="0"/>
		<edge from-layer="1621" from-port="0" to-layer="1623" to-port="1"/>
		<edge from-layer="1622" from-port="0" to-layer="1623" to-port="2"/>
		<edge from-layer="1623" from-port="3" to-layer="1624" to-port="0"/>
		<edge from-layer="1624" from-port="1" to-layer="1626" to-port="0"/>
		<edge from-layer="1625" from-port="0" to-layer="1626" to-port="1"/>
		<edge from-layer="1626" from-port="2" to-layer="1627" to-port="0"/>
		<edge from-layer="1627" from-port="1" to-layer="1629" to-port="0"/>
		<edge from-layer="1628" from-port="0" to-layer="1629" to-port="1"/>
		<edge from-layer="1629" from-port="2" to-layer="1639" to-port="0"/>
		<edge from-layer="1630" from-port="0" to-layer="1632" to-port="1"/>
		<edge from-layer="1631" from-port="0" to-layer="1632" to-port="2"/>
		<edge from-layer="1632" from-port="3" to-layer="1633" to-port="0"/>
		<edge from-layer="1633" from-port="1" to-layer="1635" to-port="0"/>
		<edge from-layer="1634" from-port="0" to-layer="1635" to-port="1"/>
		<edge from-layer="1635" from-port="2" to-layer="1636" to-port="0"/>
		<edge from-layer="1636" from-port="1" to-layer="1638" to-port="0"/>
		<edge from-layer="1637" from-port="0" to-layer="1638" to-port="1"/>
		<edge from-layer="1638" from-port="2" to-layer="1639" to-port="1"/>
		<edge from-layer="1639" from-port="2" to-layer="1640" to-port="0"/>
		<edge from-layer="1640" from-port="1" to-layer="1641" to-port="1"/>
		<edge from-layer="1641" from-port="2" to-layer="1642" to-port="0"/>
		<edge from-layer="1641" from-port="2" to-layer="1647" to-port="1"/>
		<edge from-layer="1642" from-port="1" to-layer="1644" to-port="0"/>
		<edge from-layer="1643" from-port="1" to-layer="1644" to-port="1"/>
		<edge from-layer="1644" from-port="2" to-layer="1646" to-port="0"/>
		<edge from-layer="1645" from-port="0" to-layer="1646" to-port="1"/>
		<edge from-layer="1646" from-port="2" to-layer="1647" to-port="2"/>
		<edge from-layer="1647" from-port="3" to-layer="1648" to-port="1"/>
		<edge from-layer="1648" from-port="2" to-layer="1760" to-port="0"/>
		<edge from-layer="1649" from-port="0" to-layer="1650" to-port="1"/>
		<edge from-layer="1650" from-port="2" to-layer="1652" to-port="0"/>
		<edge from-layer="1651" from-port="0" to-layer="1652" to-port="1"/>
		<edge from-layer="1652" from-port="2" to-layer="1653" to-port="0"/>
		<edge from-layer="1653" from-port="1" to-layer="1655" to-port="0"/>
		<edge from-layer="1654" from-port="0" to-layer="1655" to-port="1"/>
		<edge from-layer="1655" from-port="2" to-layer="1657" to-port="0"/>
		<edge from-layer="1656" from-port="0" to-layer="1657" to-port="1"/>
		<edge from-layer="1657" from-port="2" to-layer="1662" to-port="0"/>
		<edge from-layer="1658" from-port="0" to-layer="1659" to-port="1"/>
		<edge from-layer="1659" from-port="2" to-layer="1661" to-port="0"/>
		<edge from-layer="1660" from-port="0" to-layer="1661" to-port="1"/>
		<edge from-layer="1661" from-port="2" to-layer="1662" to-port="1"/>
		<edge from-layer="1662" from-port="2" to-layer="1663" to-port="0"/>
		<edge from-layer="1663" from-port="2" to-layer="1700" to-port="0"/>
		<edge from-layer="1664" from-port="0" to-layer="1665" to-port="1"/>
		<edge from-layer="1665" from-port="2" to-layer="1667" to-port="0"/>
		<edge from-layer="1666" from-port="0" to-layer="1667" to-port="1"/>
		<edge from-layer="1667" from-port="2" to-layer="1699" to-port="0"/>
		<edge from-layer="1667" from-port="2" to-layer="1668" to-port="0"/>
		<edge from-layer="1668" from-port="1" to-layer="1675" to-port="0"/>
		<edge from-layer="1668" from-port="1" to-layer="1672" to-port="0"/>
		<edge from-layer="1668" from-port="1" to-layer="1695" to-port="0"/>
		<edge from-layer="1668" from-port="1" to-layer="1684" to-port="0"/>
		<edge from-layer="1669" from-port="0" to-layer="1672" to-port="1"/>
		<edge from-layer="1670" from-port="0" to-layer="1672" to-port="2"/>
		<edge from-layer="1671" from-port="0" to-layer="1672" to-port="3"/>
		<edge from-layer="1672" from-port="4" to-layer="1693" to-port="0"/>
		<edge from-layer="1673" from-port="0" to-layer="1675" to-port="1"/>
		<edge from-layer="1674" from-port="0" to-layer="1675" to-port="2"/>
		<edge from-layer="1675" from-port="3" to-layer="1676" to-port="0"/>
		<edge from-layer="1676" from-port="1" to-layer="1678" to-port="0"/>
		<edge from-layer="1677" from-port="0" to-layer="1678" to-port="1"/>
		<edge from-layer="1678" from-port="2" to-layer="1679" to-port="0"/>
		<edge from-layer="1679" from-port="1" to-layer="1681" to-port="0"/>
		<edge from-layer="1680" from-port="0" to-layer="1681" to-port="1"/>
		<edge from-layer="1681" from-port="2" to-layer="1691" to-port="0"/>
		<edge from-layer="1682" from-port="0" to-layer="1684" to-port="1"/>
		<edge from-layer="1683" from-port="0" to-layer="1684" to-port="2"/>
		<edge from-layer="1684" from-port="3" to-layer="1685" to-port="0"/>
		<edge from-layer="1685" from-port="1" to-layer="1687" to-port="0"/>
		<edge from-layer="1686" from-port="0" to-layer="1687" to-port="1"/>
		<edge from-layer="1687" from-port="2" to-layer="1688" to-port="0"/>
		<edge from-layer="1688" from-port="1" to-layer="1690" to-port="0"/>
		<edge from-layer="1689" from-port="0" to-layer="1690" to-port="1"/>
		<edge from-layer="1690" from-port="2" to-layer="1691" to-port="1"/>
		<edge from-layer="1691" from-port="2" to-layer="1692" to-port="0"/>
		<edge from-layer="1692" from-port="1" to-layer="1693" to-port="1"/>
		<edge from-layer="1693" from-port="2" to-layer="1699" to-port="1"/>
		<edge from-layer="1693" from-port="2" to-layer="1694" to-port="0"/>
		<edge from-layer="1694" from-port="1" to-layer="1696" to-port="0"/>
		<edge from-layer="1695" from-port="1" to-layer="1696" to-port="1"/>
		<edge from-layer="1696" from-port="2" to-layer="1698" to-port="0"/>
		<edge from-layer="1697" from-port="0" to-layer="1698" to-port="1"/>
		<edge from-layer="1698" from-port="2" to-layer="1699" to-port="2"/>
		<edge from-layer="1699" from-port="3" to-layer="1700" to-port="1"/>
		<edge from-layer="1700" from-port="2" to-layer="1701" to-port="0"/>
		<edge from-layer="1701" from-port="1" to-layer="1703" to-port="0"/>
		<edge from-layer="1701" from-port="1" to-layer="1711" to-port="1"/>
		<edge from-layer="1702" from-port="0" to-layer="1703" to-port="1"/>
		<edge from-layer="1703" from-port="2" to-layer="1705" to-port="0"/>
		<edge from-layer="1704" from-port="0" to-layer="1705" to-port="1"/>
		<edge from-layer="1705" from-port="2" to-layer="1706" to-port="0"/>
		<edge from-layer="1706" from-port="1" to-layer="1708" to-port="0"/>
		<edge from-layer="1707" from-port="0" to-layer="1708" to-port="1"/>
		<edge from-layer="1708" from-port="2" to-layer="1710" to-port="0"/>
		<edge from-layer="1709" from-port="0" to-layer="1710" to-port="1"/>
		<edge from-layer="1710" from-port="2" to-layer="1711" to-port="0"/>
		<edge from-layer="1711" from-port="2" to-layer="1712" to-port="0"/>
		<edge from-layer="1712" from-port="1" to-layer="1714" to-port="0"/>
		<edge from-layer="1712" from-port="1" to-layer="1722" to-port="1"/>
		<edge from-layer="1713" from-port="0" to-layer="1714" to-port="1"/>
		<edge from-layer="1714" from-port="2" to-layer="1716" to-port="0"/>
		<edge from-layer="1715" from-port="0" to-layer="1716" to-port="1"/>
		<edge from-layer="1716" from-port="2" to-layer="1717" to-port="0"/>
		<edge from-layer="1717" from-port="1" to-layer="1719" to-port="0"/>
		<edge from-layer="1718" from-port="0" to-layer="1719" to-port="1"/>
		<edge from-layer="1719" from-port="2" to-layer="1721" to-port="0"/>
		<edge from-layer="1720" from-port="0" to-layer="1721" to-port="1"/>
		<edge from-layer="1721" from-port="2" to-layer="1722" to-port="0"/>
		<edge from-layer="1722" from-port="2" to-layer="1723" to-port="0"/>
		<edge from-layer="1723" from-port="1" to-layer="1725" to-port="0"/>
		<edge from-layer="1724" from-port="0" to-layer="1725" to-port="1"/>
		<edge from-layer="1725" from-port="2" to-layer="1727" to-port="0"/>
		<edge from-layer="1726" from-port="0" to-layer="1727" to-port="1"/>
		<edge from-layer="1727" from-port="2" to-layer="1759" to-port="0"/>
		<edge from-layer="1727" from-port="2" to-layer="1728" to-port="0"/>
		<edge from-layer="1728" from-port="1" to-layer="1735" to-port="0"/>
		<edge from-layer="1728" from-port="1" to-layer="1755" to-port="0"/>
		<edge from-layer="1728" from-port="1" to-layer="1732" to-port="0"/>
		<edge from-layer="1728" from-port="1" to-layer="1744" to-port="0"/>
		<edge from-layer="1729" from-port="0" to-layer="1732" to-port="1"/>
		<edge from-layer="1730" from-port="0" to-layer="1732" to-port="2"/>
		<edge from-layer="1731" from-port="0" to-layer="1732" to-port="3"/>
		<edge from-layer="1732" from-port="4" to-layer="1753" to-port="0"/>
		<edge from-layer="1733" from-port="0" to-layer="1735" to-port="1"/>
		<edge from-layer="1734" from-port="0" to-layer="1735" to-port="2"/>
		<edge from-layer="1735" from-port="3" to-layer="1736" to-port="0"/>
		<edge from-layer="1736" from-port="1" to-layer="1738" to-port="0"/>
		<edge from-layer="1737" from-port="0" to-layer="1738" to-port="1"/>
		<edge from-layer="1738" from-port="2" to-layer="1739" to-port="0"/>
		<edge from-layer="1739" from-port="1" to-layer="1741" to-port="0"/>
		<edge from-layer="1740" from-port="0" to-layer="1741" to-port="1"/>
		<edge from-layer="1741" from-port="2" to-layer="1751" to-port="0"/>
		<edge from-layer="1742" from-port="0" to-layer="1744" to-port="1"/>
		<edge from-layer="1743" from-port="0" to-layer="1744" to-port="2"/>
		<edge from-layer="1744" from-port="3" to-layer="1745" to-port="0"/>
		<edge from-layer="1745" from-port="1" to-layer="1747" to-port="0"/>
		<edge from-layer="1746" from-port="0" to-layer="1747" to-port="1"/>
		<edge from-layer="1747" from-port="2" to-layer="1748" to-port="0"/>
		<edge from-layer="1748" from-port="1" to-layer="1750" to-port="0"/>
		<edge from-layer="1749" from-port="0" to-layer="1750" to-port="1"/>
		<edge from-layer="1750" from-port="2" to-layer="1751" to-port="1"/>
		<edge from-layer="1751" from-port="2" to-layer="1752" to-port="0"/>
		<edge from-layer="1752" from-port="1" to-layer="1753" to-port="1"/>
		<edge from-layer="1753" from-port="2" to-layer="1759" to-port="1"/>
		<edge from-layer="1753" from-port="2" to-layer="1754" to-port="0"/>
		<edge from-layer="1754" from-port="1" to-layer="1756" to-port="0"/>
		<edge from-layer="1755" from-port="1" to-layer="1756" to-port="1"/>
		<edge from-layer="1756" from-port="2" to-layer="1758" to-port="0"/>
		<edge from-layer="1757" from-port="0" to-layer="1758" to-port="1"/>
		<edge from-layer="1758" from-port="2" to-layer="1759" to-port="2"/>
		<edge from-layer="1759" from-port="3" to-layer="1760" to-port="1"/>
		<edge from-layer="1760" from-port="2" to-layer="1850" to-port="0"/>
		<edge from-layer="1761" from-port="0" to-layer="1762" to-port="1"/>
		<edge from-layer="1762" from-port="2" to-layer="1764" to-port="0"/>
		<edge from-layer="1763" from-port="0" to-layer="1764" to-port="1"/>
		<edge from-layer="1764" from-port="2" to-layer="1765" to-port="0"/>
		<edge from-layer="1765" from-port="1" to-layer="1767" to-port="0"/>
		<edge from-layer="1766" from-port="0" to-layer="1767" to-port="1"/>
		<edge from-layer="1767" from-port="2" to-layer="1769" to-port="0"/>
		<edge from-layer="1768" from-port="0" to-layer="1769" to-port="1"/>
		<edge from-layer="1769" from-port="2" to-layer="1770" to-port="0"/>
		<edge from-layer="1770" from-port="1" to-layer="1772" to-port="0"/>
		<edge from-layer="1771" from-port="0" to-layer="1772" to-port="1"/>
		<edge from-layer="1772" from-port="2" to-layer="1774" to-port="0"/>
		<edge from-layer="1773" from-port="0" to-layer="1774" to-port="1"/>
		<edge from-layer="1774" from-port="2" to-layer="1784" to-port="0"/>
		<edge from-layer="1775" from-port="0" to-layer="1776" to-port="1"/>
		<edge from-layer="1776" from-port="2" to-layer="1778" to-port="0"/>
		<edge from-layer="1777" from-port="0" to-layer="1778" to-port="1"/>
		<edge from-layer="1778" from-port="2" to-layer="1779" to-port="0"/>
		<edge from-layer="1779" from-port="1" to-layer="1781" to-port="0"/>
		<edge from-layer="1780" from-port="0" to-layer="1781" to-port="1"/>
		<edge from-layer="1781" from-port="2" to-layer="1783" to-port="0"/>
		<edge from-layer="1782" from-port="0" to-layer="1783" to-port="1"/>
		<edge from-layer="1783" from-port="2" to-layer="1784" to-port="1"/>
		<edge from-layer="1784" from-port="2" to-layer="1789" to-port="0"/>
		<edge from-layer="1785" from-port="0" to-layer="1786" to-port="1"/>
		<edge from-layer="1786" from-port="2" to-layer="1788" to-port="0"/>
		<edge from-layer="1787" from-port="0" to-layer="1788" to-port="1"/>
		<edge from-layer="1788" from-port="2" to-layer="1789" to-port="1"/>
		<edge from-layer="1789" from-port="2" to-layer="1790" to-port="0"/>
		<edge from-layer="1790" from-port="2" to-layer="1791" to-port="0"/>
		<edge from-layer="1791" from-port="1" to-layer="1793" to-port="0"/>
		<edge from-layer="1791" from-port="1" to-layer="1801" to-port="1"/>
		<edge from-layer="1792" from-port="0" to-layer="1793" to-port="1"/>
		<edge from-layer="1793" from-port="2" to-layer="1795" to-port="0"/>
		<edge from-layer="1794" from-port="0" to-layer="1795" to-port="1"/>
		<edge from-layer="1795" from-port="2" to-layer="1796" to-port="0"/>
		<edge from-layer="1796" from-port="1" to-layer="1798" to-port="0"/>
		<edge from-layer="1797" from-port="0" to-layer="1798" to-port="1"/>
		<edge from-layer="1798" from-port="2" to-layer="1800" to-port="0"/>
		<edge from-layer="1799" from-port="0" to-layer="1800" to-port="1"/>
		<edge from-layer="1800" from-port="2" to-layer="1801" to-port="0"/>
		<edge from-layer="1801" from-port="2" to-layer="1802" to-port="0"/>
		<edge from-layer="1802" from-port="1" to-layer="1804" to-port="0"/>
		<edge from-layer="1802" from-port="1" to-layer="1812" to-port="1"/>
		<edge from-layer="1803" from-port="0" to-layer="1804" to-port="1"/>
		<edge from-layer="1804" from-port="2" to-layer="1806" to-port="0"/>
		<edge from-layer="1805" from-port="0" to-layer="1806" to-port="1"/>
		<edge from-layer="1806" from-port="2" to-layer="1807" to-port="0"/>
		<edge from-layer="1807" from-port="1" to-layer="1809" to-port="0"/>
		<edge from-layer="1808" from-port="0" to-layer="1809" to-port="1"/>
		<edge from-layer="1809" from-port="2" to-layer="1811" to-port="0"/>
		<edge from-layer="1810" from-port="0" to-layer="1811" to-port="1"/>
		<edge from-layer="1811" from-port="2" to-layer="1812" to-port="0"/>
		<edge from-layer="1812" from-port="2" to-layer="1813" to-port="0"/>
		<edge from-layer="1813" from-port="1" to-layer="1815" to-port="0"/>
		<edge from-layer="1814" from-port="0" to-layer="1815" to-port="1"/>
		<edge from-layer="1815" from-port="2" to-layer="1817" to-port="0"/>
		<edge from-layer="1816" from-port="0" to-layer="1817" to-port="1"/>
		<edge from-layer="1817" from-port="2" to-layer="1818" to-port="0"/>
		<edge from-layer="1817" from-port="2" to-layer="1849" to-port="0"/>
		<edge from-layer="1818" from-port="1" to-layer="1845" to-port="0"/>
		<edge from-layer="1818" from-port="1" to-layer="1834" to-port="0"/>
		<edge from-layer="1818" from-port="1" to-layer="1825" to-port="0"/>
		<edge from-layer="1818" from-port="1" to-layer="1822" to-port="0"/>
		<edge from-layer="1819" from-port="0" to-layer="1822" to-port="1"/>
		<edge from-layer="1820" from-port="0" to-layer="1822" to-port="2"/>
		<edge from-layer="1821" from-port="0" to-layer="1822" to-port="3"/>
		<edge from-layer="1822" from-port="4" to-layer="1843" to-port="0"/>
		<edge from-layer="1823" from-port="0" to-layer="1825" to-port="1"/>
		<edge from-layer="1824" from-port="0" to-layer="1825" to-port="2"/>
		<edge from-layer="1825" from-port="3" to-layer="1826" to-port="0"/>
		<edge from-layer="1826" from-port="1" to-layer="1828" to-port="0"/>
		<edge from-layer="1827" from-port="0" to-layer="1828" to-port="1"/>
		<edge from-layer="1828" from-port="2" to-layer="1829" to-port="0"/>
		<edge from-layer="1829" from-port="1" to-layer="1831" to-port="0"/>
		<edge from-layer="1830" from-port="0" to-layer="1831" to-port="1"/>
		<edge from-layer="1831" from-port="2" to-layer="1841" to-port="0"/>
		<edge from-layer="1832" from-port="0" to-layer="1834" to-port="1"/>
		<edge from-layer="1833" from-port="0" to-layer="1834" to-port="2"/>
		<edge from-layer="1834" from-port="3" to-layer="1835" to-port="0"/>
		<edge from-layer="1835" from-port="1" to-layer="1837" to-port="0"/>
		<edge from-layer="1836" from-port="0" to-layer="1837" to-port="1"/>
		<edge from-layer="1837" from-port="2" to-layer="1838" to-port="0"/>
		<edge from-layer="1838" from-port="1" to-layer="1840" to-port="0"/>
		<edge from-layer="1839" from-port="0" to-layer="1840" to-port="1"/>
		<edge from-layer="1840" from-port="2" to-layer="1841" to-port="1"/>
		<edge from-layer="1841" from-port="2" to-layer="1842" to-port="0"/>
		<edge from-layer="1842" from-port="1" to-layer="1843" to-port="1"/>
		<edge from-layer="1843" from-port="2" to-layer="1844" to-port="0"/>
		<edge from-layer="1843" from-port="2" to-layer="1849" to-port="1"/>
		<edge from-layer="1844" from-port="1" to-layer="1846" to-port="0"/>
		<edge from-layer="1845" from-port="1" to-layer="1846" to-port="1"/>
		<edge from-layer="1846" from-port="2" to-layer="1848" to-port="0"/>
		<edge from-layer="1847" from-port="0" to-layer="1848" to-port="1"/>
		<edge from-layer="1848" from-port="2" to-layer="1849" to-port="2"/>
		<edge from-layer="1849" from-port="3" to-layer="1850" to-port="1"/>
		<edge from-layer="1850" from-port="2" to-layer="1851" to-port="0"/>
		<edge from-layer="1851" from-port="1" to-layer="1853" to-port="0"/>
		<edge from-layer="1851" from-port="1" to-layer="1866" to-port="0"/>
		<edge from-layer="1851" from-port="1" to-layer="1862" to-port="0"/>
		<edge from-layer="1852" from-port="0" to-layer="1853" to-port="1"/>
		<edge from-layer="1853" from-port="2" to-layer="1855" to-port="0"/>
		<edge from-layer="1854" from-port="0" to-layer="1855" to-port="1"/>
		<edge from-layer="1855" from-port="2" to-layer="1856" to-port="0"/>
		<edge from-layer="1855" from-port="2" to-layer="1897" to-port="0"/>
		<edge from-layer="1855" from-port="2" to-layer="1865" to-port="1"/>
		<edge from-layer="1856" from-port="1" to-layer="1860" to-port="0"/>
		<edge from-layer="1856" from-port="1" to-layer="1893" to-port="0"/>
		<edge from-layer="1857" from-port="0" to-layer="1860" to-port="1"/>
		<edge from-layer="1858" from-port="0" to-layer="1860" to-port="2"/>
		<edge from-layer="1859" from-port="0" to-layer="1860" to-port="3"/>
		<edge from-layer="1860" from-port="4" to-layer="1891" to-port="0"/>
		<edge from-layer="1861" from-port="0" to-layer="1862" to-port="1"/>
		<edge from-layer="1862" from-port="2" to-layer="1864" to-port="0"/>
		<edge from-layer="1863" from-port="0" to-layer="1864" to-port="1"/>
		<edge from-layer="1864" from-port="2" to-layer="1865" to-port="0"/>
		<edge from-layer="1864" from-port="2" to-layer="1901" to-port="0"/>
		<edge from-layer="1864" from-port="2" to-layer="1915" to-port="0"/>
		<edge from-layer="1865" from-port="2" to-layer="1866" to-port="1"/>
		<edge from-layer="1866" from-port="2" to-layer="1868" to-port="0"/>
		<edge from-layer="1867" from-port="0" to-layer="1868" to-port="1"/>
		<edge from-layer="1868" from-port="2" to-layer="1870" to-port="0"/>
		<edge from-layer="1869" from-port="0" to-layer="1870" to-port="1"/>
		<edge from-layer="1870" from-port="2" to-layer="1871" to-port="0"/>
		<edge from-layer="1871" from-port="1" to-layer="1873" to-port="0"/>
		<edge from-layer="1871" from-port="1" to-layer="1881" to-port="1"/>
		<edge from-layer="1872" from-port="0" to-layer="1873" to-port="1"/>
		<edge from-layer="1873" from-port="2" to-layer="1875" to-port="0"/>
		<edge from-layer="1874" from-port="0" to-layer="1875" to-port="1"/>
		<edge from-layer="1875" from-port="2" to-layer="1876" to-port="0"/>
		<edge from-layer="1876" from-port="1" to-layer="1878" to-port="0"/>
		<edge from-layer="1877" from-port="0" to-layer="1878" to-port="1"/>
		<edge from-layer="1878" from-port="2" to-layer="1880" to-port="0"/>
		<edge from-layer="1879" from-port="0" to-layer="1880" to-port="1"/>
		<edge from-layer="1880" from-port="2" to-layer="1881" to-port="0"/>
		<edge from-layer="1881" from-port="2" to-layer="1882" to-port="0"/>
		<edge from-layer="1882" from-port="1" to-layer="1884" to-port="0"/>
		<edge from-layer="1883" from-port="0" to-layer="1884" to-port="1"/>
		<edge from-layer="1884" from-port="2" to-layer="1886" to-port="0"/>
		<edge from-layer="1885" from-port="0" to-layer="1886" to-port="1"/>
		<edge from-layer="1886" from-port="2" to-layer="1887" to-port="0"/>
		<edge from-layer="1886" from-port="2" to-layer="1916" to-port="1"/>
		<edge from-layer="1887" from-port="1" to-layer="1890" to-port="0"/>
		<edge from-layer="1887" from-port="1" to-layer="1908" to-port="0"/>
		<edge from-layer="1888" from-port="0" to-layer="1890" to-port="1"/>
		<edge from-layer="1889" from-port="0" to-layer="1890" to-port="2"/>
		<edge from-layer="1890" from-port="3" to-layer="1891" to-port="1"/>
		<edge from-layer="1891" from-port="2" to-layer="1897" to-port="1"/>
		<edge from-layer="1891" from-port="2" to-layer="1892" to-port="0"/>
		<edge from-layer="1892" from-port="1" to-layer="1894" to-port="0"/>
		<edge from-layer="1893" from-port="1" to-layer="1894" to-port="1"/>
		<edge from-layer="1894" from-port="2" to-layer="1896" to-port="0"/>
		<edge from-layer="1895" from-port="0" to-layer="1896" to-port="1"/>
		<edge from-layer="1896" from-port="2" to-layer="1897" to-port="2"/>
		<edge from-layer="1897" from-port="3" to-layer="1899" to-port="0"/>
		<edge from-layer="1898" from-port="0" to-layer="1899" to-port="1"/>
		<edge from-layer="1899" from-port="2" to-layer="1900" to-port="0"/>
		<edge from-layer="1901" from-port="1" to-layer="1911" to-port="0"/>
		<edge from-layer="1901" from-port="1" to-layer="1905" to-port="0"/>
		<edge from-layer="1902" from-port="0" to-layer="1905" to-port="1"/>
		<edge from-layer="1903" from-port="0" to-layer="1905" to-port="2"/>
		<edge from-layer="1904" from-port="0" to-layer="1905" to-port="3"/>
		<edge from-layer="1905" from-port="4" to-layer="1909" to-port="0"/>
		<edge from-layer="1906" from-port="0" to-layer="1908" to-port="1"/>
		<edge from-layer="1907" from-port="0" to-layer="1908" to-port="2"/>
		<edge from-layer="1908" from-port="3" to-layer="1909" to-port="1"/>
		<edge from-layer="1909" from-port="2" to-layer="1910" to-port="0"/>
		<edge from-layer="1909" from-port="2" to-layer="1915" to-port="1"/>
		<edge from-layer="1910" from-port="1" to-layer="1912" to-port="0"/>
		<edge from-layer="1911" from-port="1" to-layer="1912" to-port="1"/>
		<edge from-layer="1912" from-port="2" to-layer="1914" to-port="0"/>
		<edge from-layer="1913" from-port="0" to-layer="1914" to-port="1"/>
		<edge from-layer="1914" from-port="2" to-layer="1915" to-port="2"/>
		<edge from-layer="1915" from-port="3" to-layer="1916" to-port="0"/>
		<edge from-layer="1916" from-port="2" to-layer="1918" to-port="0"/>
		<edge from-layer="1917" from-port="0" to-layer="1918" to-port="1"/>
		<edge from-layer="1918" from-port="2" to-layer="1919" to-port="0"/>
		<edge from-layer="1919" from-port="1" to-layer="1920" to-port="0"/>
		<edge from-layer="1919" from-port="1" to-layer="1921" to-port="1"/>
		<edge from-layer="1919" from-port="1" to-layer="1927" to-port="0"/>
		<edge from-layer="1920" from-port="1" to-layer="1921" to-port="0"/>
		<edge from-layer="1921" from-port="2" to-layer="1922" to-port="0"/>
		<edge from-layer="1922" from-port="1" to-layer="1924" to-port="0"/>
		<edge from-layer="1923" from-port="0" to-layer="1924" to-port="1"/>
		<edge from-layer="1924" from-port="2" to-layer="1926" to-port="0"/>
		<edge from-layer="1925" from-port="0" to-layer="1926" to-port="1"/>
		<edge from-layer="1926" from-port="2" to-layer="1927" to-port="1"/>
		<edge from-layer="1927" from-port="2" to-layer="1928" to-port="0"/>
	</edges>
	<meta_data>
		<MO_version value="2022.1.0-6910-173f328c53d"/>
		<Runtime_version value="2022.1.0-6910-173f328c53d"/>
		<legacy_path value="False"/>
		<cli_parameters>
			<caffe_parser_path value="DIR"/>
			<compress_fp16 value="False"/>
			<data_type value="FP32"/>
			<disable_nhwc_to_nchw value="False"/>
			<disable_omitting_optional value="False"/>
			<disable_resnet_optimization value="False"/>
			<disable_weights_compression value="False"/>
			<enable_concat_optimization value="False"/>
			<enable_flattening_nested_params value="False"/>
			<enable_ssd_gluoncv value="False"/>
			<extensions value="DIR"/>
			<framework value="onnx"/>
			<freeze_placeholder_with_value value="{}"/>
			<generate_deprecated_IR_V7 value="False"/>
			<input value="image"/>
			<input_model value="DIR/human-pose-estimation-0005.onnx"/>
			<input_model_is_text value="False"/>
			<input_shape value="[1,3,288,288]"/>
			<k value="DIR/CustomLayersMapping.xml"/>
			<keep_shape_ops value="True"/>
			<layout value="image(nchw)"/>
			<layout_values value="{'image': {'source_layout': 'nchw', 'target_layout': None, 'is_input': True}}"/>
			<legacy_ir_generation value="False"/>
			<legacy_mxnet_model value="False"/>
			<log_level value="ERROR"/>
			<mean_scale_values value="{'image': {'mean': array([123.675, 116.28 , 103.53 ]), 'scale': array([58.395, 57.12 , 57.375])}}"/>
			<mean_values value="image[123.675,116.28,103.53]"/>
			<model_name value="human-pose-estimation-0005"/>
			<output value="['heatmaps', 'embeddings']"/>
			<output_dir value="DIR"/>
			<placeholder_data_types value="{}"/>
			<placeholder_shapes value="{'image': (1, 3, 288, 288)}"/>
			<progress value="False"/>
			<remove_memory value="False"/>
			<remove_output_softmax value="False"/>
			<reverse_input_channels value="True"/>
			<save_params_from_nd value="False"/>
			<scale_values value="image[58.395,57.12,57.375]"/>
			<silent value="False"/>
			<source_layout value="()"/>
			<static_shape value="False"/>
			<stream_output value="False"/>
			<target_layout value="()"/>
			<transform value=""/>
			<use_legacy_frontend value="False"/>
			<use_new_frontend value="False"/>
			<unset unset_cli_parameters="batch, counts, disable_fusing, disable_gfusing, finegrain_fusing, input_checkpoint, input_meta_graph, input_proto, input_symbol, mean_file, mean_file_offsets, move_to_preprocess, nd_prefix_name, pretrained_model_name, saved_model_dir, saved_model_tags, scale, tensorboard_logdir, tensorflow_custom_layer_libraries, tensorflow_custom_operations_config_update, tensorflow_object_detection_api_pipeline_config, tensorflow_use_custom_operations_config, transformations_config"/>
		</cli_parameters>
	</meta_data>
</net>
